snapshots_folder/Epoch37.pth (torch, 322220 bytes, 14 tensors)

e_conv1.weight f4 [32, 3, 3, 3]
0	0x3d27acf4	0.040936425
1	0x3d09e767	0.033667948
2	0x3c7a3025	0.015270268
3	0x3c6c5847	0.014425344
4	0x3c35158a	0.011052499
5	0x3cb97324	0.022637911
6	0x3c9a3a28	0.01882656
7	0x3d01a0d7	0.03164753
8	0x3c3c9445	0.01150996
9	0x3cd32579	0.025774704
10	0xbc3a7132	-0.011379527
11	0x3d3049c6	0.043039106
12	0x3cebf129	0.028801518
13	0x3d378060	0.044800162
14	0x3c885241	0.016640784
15	0x3bdd2b2c	0.0067495313
16	0x3c1a9d97	0.009436986
17	0x3ccef8d8	0.025265142
18	0x3b4d4420	0.0031321123
19	0xbbfaf530	-0.007658623
20	0x3d2e4d02	0.04255391
21	0x3c3d7db2	0.011565613
22	0x3bac46b7	0.0052574533
23	0x3d379da3	0.04482807
24	0x3c8db5ec	0.017298661
25	0x3ce0cc9c	0.027441315
26	0x3c7d25c2	0.015450897
27	0x80008b44	-4.9959e-41
28	0x80008b25	-4.9916e-41
29	0x80008acf	-4.9795e-41
30	0x00008d6a	5.073e-41
31	0x9782d4cf	-8.454774e-25
32	0x00008965	4.9288e-41
33	0x00008c97	5.0434e-41
34	0x80008b16	-4.9895e-41
35	0x80008a25	-4.9557e-41
36	0x14991e5a	1.5461024e-26
37	0x000089a4	4.9376e-41
38	0x800089a0	-4.937e-41
39	0x0000890e	4.9166e-41
40	0x00008c11	5.0246e-41
41	0x00008a84	4.969e-41
42	0x000089c9	4.9428e-41
43	0x8b5507b5	-4.1028106e-32
44	0x00008df1	5.0919e-41
45	0x00009784	5.4354e-41
46	0x8000a84f	-6.0378e-41
47	0x80008964	-4.9286e-41
48	0x92a110d6	-1.0164679e-27
49	0x80008da8	-5.0817e-41
50	0x00008d43	5.0675e-41
51	0x00008908	4.9158e-41
52	0x80008a50	-4.9617e-41
53	0x90168c7e	-2.9690515e-29
54	0x3c7dbee8	0.01548741
55	0xbabc53e0	-0.0014368258
56	0xbc28c9b8	-0.010302
57	0xbc7c6b5e	-0.015406458
58	0x3cb3211e	0.021866377
59	0x3c378cc3	0.011202994
60	0xbc1849e1	-0.009294958
61	0x3b02fb0d	0.0019986064
62	0xbce40b5a	-0.027837444
63	0xbc3b18b1	-0.011419461
64	0xbbcae726	-0.006192106
65	0x3ac78f5e	0.0015225222
66	0x3c605926	0.01369313
67	0xbc9490df	-0.018135486
68	0xbbd22f7e	-0.006414353
69	0xbccd34f6	-0.025049668
70	0xbc3d476e	-0.011552675
71	0x3b4c029b	0.0031129483
72	0xbcb813ca	-0.022470374
73	0xbbba5676	-0.0056865765
74	0x3c3d2999	0.011545562
75	0xbc6aa900	-0.014322519
76	0xbba06ebd	-0.0048960135
77	0x3c534d17	0.012896798
78	0xbbf3fbb2	-0.007445776
79	0xbc125989	-0.00893248
80	0x3c82bd25	0.015959332
81	0x3ca8d153	0.020607626
82	0xbc2dc461	-0.010605902
83	0x3cd012ba	0.025399555
84	0xbc3307a0	-0.010927111
85	0x3aebd514	0.0017992579
86	0x3cfb033a	0.030641187
87	0x3d24944e	0.040180497
88	0xbb089b04	-0.002084435
89	0x3ca61fc5	0.02027882
90	0x3c25c6d1	0.010118202
91	0x3cbcf576	0.023066264
92	0x3c9f7770	0.019466132
93	0x3ab254c0	0.001360558
94	0x3cb73e8a	0.022368688
95	0xba42d3df	-0.0007432084
96	0xbcdb1cf3	-0.026747203
97	0xbc1872bd	-0.0093046995
98	0x3c8b6276	0.017014723
99	0x3c930b3d	0.017949695
100	0xba24c76d	-0.000628582
101	0x3ca6e6c9	0.020373719
102	0xba8a6994	-0.0010560029
103	0x3beb071e	0.0071724793
104	0x3c0b3314	0.008496065
105	0x3cb68892	0.022281919
106	0xbc91daed	-0.017804587
107	0x3b90ae84	0.004415335
108	0x00008a62	4.9642e-41
109	0x80008abb	-4.9767e-41
110	0x80008996	-4.9357e-41
111	0x80008a9d	-4.9725e-41
112	0x80008a91	-4.9708e-41
113	0x80008e47	-5.104e-41
114	0x00008b4e	4.9973e-41
115	0x00009057	5.178e-41
116	0x80009892	-5.4732e-41
117	0x00008909	4.9159e-41
118	0x00008a20	4.955e-41
119	0x00008fee	5.1632e-41
120	0x00008931	4.9215e-41
121	0x8000892f	-4.9212e-41
122	0x00008edb	5.1247e-41
123	0x80008aab	-4.9745e-41
124	0x000088fe	4.9144e-41
125	0x00008920	4.9191e-41
126	0x00009d67	5.6465e-41
127	0x800088f3	-4.9128e-41
128	0x88b07f3f	-1.062253e-33
129	0x80008ac0	-4.9774e-41
130	0x80008900	-4.9146e-41
131	0x00008933	4.9218e-41
132	0x80008ce6	-5.0545e-41
133	0x80008c6c	-5.0374e-41
134	0x80008900	-4.9146e-41
135	0xbba736e8	-0.005102981
136	0x3b828636	0.0039832843
137	0xbce384d2	-0.027773295
138	0xbc8bcc22	-0.017065112
139	0x3bab9989	0.0052368087
140	0xbc991c59	-0.018690275
141	0xbd2e547a	-0.042561032
142	0xbcfa37d6	-0.030544203
143	0xbd3e51cf	-0.046464738
144	0xbd6190ed	-0.055069853
145	0xbc16277a	-0.009164685
146	0xbd6c084e	-0.057625107
147	0xba892969	-0.0010464612
148	0x3b008d23	0.0019615374
149	0xbd329f26	-0.043608807
150	0xbc7b1e65	-0.015327071
151	0xbd588a53	-0.05286629
152	0xbcef9bf2	-0.029249165
153	0xbd3c5c63	-0.045986544
154	0xbd592d9f	-0.053022023
155	0xbd9ad8a3	-0.075608514
156	0xbcf54901	-0.029942038
157	0xbd14f2d4	-0.03636439
158	0xbd29e6e5	-0.041479964
159	0xbd9177ec	-0.071029514
160	0xbd152a59	-0.03641734
161	0xbd915542	-0.0709634
162	0x36479bb0	2.9743933e-06
163	0x3675ade5	3.6609065e-06
164	0x35a9245d	1.2602064e-06
165	0xb3fcaffb	-1.1766675e-07
166	0xb59f40dc	-1.18653e-06
167	0x36920408	4.3516084e-06
168	0x34afef59	3.2770438e-07
169	0x359933c8	1.1414459e-06
170	0x35a99dbc	1.2637388e-06
171	0x3587eb4a	1.0126762e-06
172	0x3800f26b	3.0743347e-05
173	0x3606edf4	2.0106063e-06
174	0xb402fdf7	-1.2199585e-07
175	0xb56faa45	-8.9282213e-07
176	0x36699931	3.4808875e-06
177	0xb6b73532	-5.4600177e-06
178	0x35f7d109	1.8463771e-06
179	0x36442e1c	2.9233115e-06
180	0x3457dbda	2.0103417e-07
181	0xb758101b	-1.2878353e-05
182	0x36c4ecd7	5.868827e-06
183	0xb37f21ae	-5.9402446e-08
184	0xb5490ed0	-7.489989e-07
185	0x36ff56b0	7.609684e-06
186	0x34682836	2.1621312e-07
187	0xb518f397	-5.697888e-07
188	0x341cb622	1.4594892e-07
189	0xbbf95a1a	-0.007609618
190	0xbc6d0f52	-0.014468985
191	0xbc868c92	-0.016424451
192	0x3cca0e20	0.024664938
193	0x3bdd8059	0.006759685
194	0x3c824592	0.015902314
195	0x3cd21c61	0.025648298
196	0x3bc36552	0.005963006
197	0xbcd3ec59	-0.025869535
198	0xbc9c8159	-0.019104647
199	0xbc8ce73b	-0.017200103
200	0x3ac9fe88	0.0015410939
201	0xbba72b76	-0.0051016165
202	0x3ca511fd	0.020150179
203	0xba9e6a5f	-0.0012086144
204	0xbd1eac97	-0.038738813
205	0x3ca29e5f	0.019850908
206	0x3af1b6c7	0.0018441313
207	0xbc236b26	-0.009974277
208	0x396f3850	0.00022813794
209	0xbd37d0ac	-0.04487674
210	0xba0b6d67	-0.00053187314
211	0xbba37a76	-0.0049889637
212	0xbc9d731b	-0.019219926
213	0xbc884506	-0.016634475
214	0xbc14f3e9	-0.009091356
215	0xbb63f2e5	-0.0034782228
216	0x0000a301	5.8475e-41
217	0x80008ab2	-4.9755e-41
218	0x00008a3a	4.9586e-41
219	0x00008f02	5.1302e-41
220	0x000088bf	4.9055e-41
221	0x000089b6	4.9401e-41
222	0x80008c26	-5.0276e-41
223	0x000089c3	4.942e-41
224	0x00008a34	4.9578e-41
225	0x0000891f	4.919e-41
226	0x80009d9a	-5.6537e-41
227	0x80008927	-4.9201e-41
228	0x0000a84a	6.0371e-41
229	0x0000a05c	5.7526e-41
230	0x800088df	-4.91e-41
231	0x800088cd	-4.9075e-41
232	0x0000928d	5.2573e-41
233	0x800089c6	-4.9424e-41
234	0x0000894a	4.925e-41
235	0x800088e5	-4.9109e-41
236	0x800088f5	-4.9131e-41
237	0x000088f7	4.9134e-41
238	0x80008933	-4.9218e-41
239	0x00009e54	5.6797e-41
240	0x80153733	-1.948347e-39
241	0x00008b5a	4.999e-41
242	0x00008c3a	5.0304e-41
243	0x8004493c	-3.93614e-40
244	0x800089bf	-4.9414e-41
245	0x1640fab8	1.5588749e-25
246	0x80008a12	-4.953e-41
247	0x800027ca	-1.4274e-41
248	0x1404592d	6.681884e-27
249	0x000089dc	4.9455e-41
250	0x000089ec	4.9477e-41
251	0x0f882890	1.342626e-29
252	0x80008a7a	-4.9676e-41
253	0x800089b9	-4.9406e-41
254	0x1ea14321	1.7074302e-20
255	0x8000896b	-4.9296e-41

e_conv1.bias f4 [32]
0	0xbde0a477	-0.10968869
1	0xb08190b8	-9.427117e-10
2	0x3e174aac	0.14774579
3	0x3d84f994	0.06492916
4	0xb406255e	-1.2493317e-07
5	0x3e1f964a	0.15584674
6	0xbb276912	-0.0025544805
7	0x3df939de	0.121692404
8	0xb37e9d77	-5.9282197e-08
9	0xaccf39d2	-5.889713e-12
10	0x3e39253b	0.18080609
11	0x3e2e14ce	0.17000124
12	0xbd92ece8	-0.071740925
13	0xb49c9cff	-2.9171494e-07
14	0xbb0cc6e6	-0.0021480857
15	0x3e0b9720	0.13631868
16	0x3e0f95dd	0.14022012
17	0xbb914d22	-0.004434244
18	0xb28cc439	-1.6387377e-08
19	0x3e04acaf	0.12956499
20	0x3e1613e8	0.14656031
21	0x3d88d3a3	0.066809915
22	0x3e1c4a98	0.1526283
23	0x3d5a5ed8	0.053313106
24	0x3a1f4a71	0.0006076461
25	0x3d0f2aa5	0.03495278
26	0x3e315cdd	0.17320581
27	0xbc575e81	-0.01314509
28	0x3d9c0d8d	0.07619772
29	0xba97b54d	-0.0011574418
30	0x3e0f7d65	0.14012678
31	0x3e057ff5	0.13037093

e_conv2.weight f4 [32, 32, 3, 3]
0	0x3b98f92b	0.004668375
1	0x3b07ed27	0.002074072
2	0x3b6d18df	0.0036178154
3	0x3acf9bb7	0.0015839253
4	0xbb4d91a3	-0.0031367324
5	0xbbdd9d73	-0.006763154
6	0x3b260668	0.0025333408
7	0xbaed5b17	-0.0018108812
8	0xbc0a7e68	-0.008452989
9	0x000091fa	5.2367e-41
10	0x00008b22	4.9911e-41
11	0x80008a80	-4.9684e-41
12	0x80008aca	-4.9788e-41
13	0x80008a14	-4.9533e-41
14	0x000089fb	4.9498e-41
15	0x80008b11	-4.9888e-41
16	0x80008cc6	-5.05e-41
17	0x80008f94	-5.1506e-41
18	0x3b9b28e9	0.0047351015
19	0x3ba70edc	0.005098207
20	0xbbac00b3	-0.005249107
21	0x3be93f8f	0.0071181725
22	0xbc1bc2f9	-0.009506934
23	0xbc2991f2	-0.0103497375
24	0x3cf13bdd	0.02944749
25	0x3b9fab69	0.0048727286
26	0x3bd70747	0.006562147
27	0xbb229634	-0.0024808766
28	0xbbf10295	-0.007355044
29	0xbad88b19	-0.0016520947
30	0xbcb8ea29	-0.022572594
31	0xbcc0fba6	-0.023557495
32	0x3ba91190	0.0051595643
33	0xbbac7b46	-0.005263719
34	0x3c822bf5	0.015890101
35	0xbc12ace2	-0.008952351
36	0x000089fb	4.9498e-41
37	0x000088be	4.9054e-41
38	0x80008b39	-4.9944e-41
39	0x00008c46	5.032e-41
40	0x80009a31	-5.5313e-41
41	0x82060a60	-9.847743e-38
42	0x00009020	5.1702e-41
43	0x000089bf	4.9414e-41
44	0x80009e4c	-5.6786e-41
45	0xba45cb5a	-0.00075452554
46	0x3b5742c5	0.0032846194
47	0x3d1432a6	0.036181115
48	0xbd323f6d	-0.04351752
49	0xbb8e1be7	-0.0043368223
50	0xbb92da40	-0.004481584
51	0xbccb753f	-0.02483618
52	0xbbd9a1da	-0.0066416087
53	0xbb00b970	-0.001964178
54	0x00008903	4.915e-41
55	0x80008c11	-5.0246e-41
56	0x972e3bd7	-5.629796e-25
57	0x138abe34	3.5023652e-27
58	0x800088ba	-4.9048e-41
59	0x80008a71	-4.9663e-41
60	0x80008a7d	-4.968e-41
61	0x800089f3	-4.9487e-41
62	0x00009b51	5.5717e-41
63	0x3b3f6979	0.0029207154
64	0xbc2f8df9	-0.010715001
65	0xbbfe87c6	-0.0077676503
66	0x3c56a1a1	0.013100059
67	0xbbda18de	-0.0066557964
68	0x3c45bebb	0.0120693995
69	0xb9b2859e	-0.00034050358
70	0xbc9c2184	-0.01905895
71	0xbb170e6f	-0.0023049375
72	0x000088fd	4.9142e-41
73	0x80008a53	-4.9621e-41
74	0x80009371	-5.2892e-41
75	0x80008a37	-4.9582e-41
76	0x80008bc1	-5.0134e-41
77	0x0000893e	4.9233e-41
78	0x80008cab	-5.0462e-41
79	0x00008d05	5.0588e-41
80	0x8000896e	-4.93e-41
81	0x800089f4	-4.9488e-41
82	0x00008e65	5.1082e-41
83	0x0000a63b	5.9632e-41
84	0x00008e8f	5.114e-41
85	0x80008903	-4.915e-41
86	0x800096e5	-5.4131e-41
87	0x0000893f	4.9235e-41
88	0x800089f0	-4.9483e-41
89	0x00009000	5.1657e-41
90	0xbc491873	-0.012273896
91	0xbc196f98	-0.009364985
92	0x3d29b111	0.04142863
93	0xbb94468a	-0.0045250105
94	0xbcb24c62	-0.021764938
95	0x3bcdce1b	0.006280673
96	0x3c222cf7	0.009898416
97	0xbafc6324	-0.001925562
98	0x3c8a9f1a	0.016921569
99	0x3c9b4904	0.018955715
100	0x3b379957	0.0028014982
101	0xbc17834c	-0.009247612
102	0xbbca2c52	-0.006169834
103	0xbd18e41f	-0.03732693
104	0xbc773b1f	-0.015089779
105	0xbba6041b	-0.0050664074
106	0x3b6677b1	0.0035166556
107	0x3bd5378b	0.0065068654
108	0x3c29c59b	0.010362054
109	0x3bd21bad	0.0064119906
110	0x3b817c93	0.003951618
111	0x3c23f5b1	0.010007308
112	0x3bb64616	0.005562554
113	0x3abd5759	0.0014445587
114	0x3c37c00b	0.01121522
115	0x3c082a47	0.008310861
116	0x3b7c8742	0.0038532768
117	0x00008a91	4.9708e-41
118	0x80009fa0	-5.7263e-41
119	0x00008a65	4.9647e-41
120	0x80008916	-4.9177e-41
121	0x80008e8e	-5.1139e-41
122	0x00008a20	4.955e-41
123	0x80008b22	-4.9911e-41
124	0x80008bb1	-5.0112e-41
125	0x8219eed7	-1.1309208e-37
126	0x80008a04	-4.951e-41
127	0x18f74be1	6.392462e-24
128	0x80008a4b	-4.961e-41
129	0x98f12dcd	-6.2343287e-24
130	0x00008b83	5.0047e-41
131	0x800092bc	-5.2638e-41
132	0x00008a92	4.971e-41
133	0x000088e1	4.9103e-41
134	0x0000896b	4.9296e-41
135	0x3c6160b8	0.01375597
136	0xbcf642f5	-0.030061224
137	0x3c854d83	0.016272312
138	0x3ce5713d	0.028008098
139	0xbccf65a5	-0.025317023
140	0xbc88714f	-0.016655592
141	0x3bec03ad	0.0072025866
142	0x3c26fb17	0.0101917
143	0xbc8f1e0f	-0.017470388
144	0x3c24cf4b	0.010059188
145	0xbcbfa912	-0.023396049
146	0x3c96a4cb	0.018389126
147	0xbc438b26	-0.011935031
148	0xbb3ccf9b	-0.0028810266
149	0x3bd3da27	0.006465215
150	0x3a80f7b3	0.0009839445
151	0x3c8a639c	0.0168932
152	0x3bac3a47	0.0052559706
153	0x800089f9	-4.9495e-41
154	0x800088c2	-4.906e-41
155	0x0000a6d5	5.9848e-41
156	0x80008a2d	-4.9568e-41
157	0x80008b91	-5.0067e-41
158	0x0000893c	4.923e-41
159	0x000089aa	4.9385e-41
160	0x00008b97	5.0075e-41
161	0x00008bb1	5.0112e-41
162	0x00008f21	5.1345e-41
163	0x80008b1d	-4.9904e-41
164	0xa5f71e72	-4.28683e-16
165	0x80008b14	-4.9892e-41
166	0x8000897f	-4.9324e-41
167	0x80008b9c	-5.0082e-41
168	0x80008a2c	-4.9567e-41
169	0xa2839a6e	-3.567113e-18
170	0x80008aca	-4.9788e-41
171	0x3bb6ca10	0.005578287
172	0x3ccaeb47	0.024770392
173	0x3cfdfd16	0.03100447
174	0x3cf7b7ed	0.03023907
175	0x3b4b34d6	0.0031006834
176	0x3c207d4e	0.0097955
177	0x3c8ea9a0	0.017414868
178	0x3c8dd425	0.017313072
179	0x3d058a0f	0.032602366
180	0x3ca7ce70	0.02048418
181	0xbbed2b44	-0.0072378237
182	0x3c92fd49	0.017943041
183	0xbbdaacba	-0.0066734226
184	0x3c3fcfec	0.011707287
185	0xbc6401cd	-0.013916445
186	0x3c189f08	0.00931526
187	0x3b924267	0.004463482
188	0xbc2118d3	-0.009832579
189	0x3d0e99bf	0.034814592
190	0x3d056add	0.032572616
191	0x3d4890f2	0.048966356
192	0x39ecfaa6	0.00045200175
193	0x3ad6bd6f	0.001638336
194	0x3cadd4c1	0.021219613
195	0xbc0a0c7f	-0.008425831
196	0xbc4ab73c	-0.012372788
197	0x3b845084	0.0040379185
198	0x3d0a13b5	0.0337102
199	0x3b91485d	0.004433675
200	0x3cb869a4	0.02251131
201	0xbc55c23f	-0.0130468
202	0xbc126860	-0.008936018
203	0xbc15e216	-0.009148141
204	0xbc36cd25	-0.011157309
205	0xbc424ebd	-0.011859593
206	0xbba64f0a	-0.00507534
207	0x3d108561	0.03528345
208	0x3d24331a	0.040087797
209	0x3d68d18e	0.056840472
210	0x3b4c5a40	0.0031181723
211	0x3c050886	0.008119708
212	0x3ca7ce64	0.020484157
213	0xbb9fb900	-0.0048743486
214	0xbc3d1aae	-0.011542005
215	0x3c16af04	0.009197
216	0xbcb5bedb	-0.022185734
217	0xbcde3462	-0.027124587
218	0xbd45bba5	-0.048274655
219	0x3b3ecb44	0.0029112855
220	0x3b186bad	0.002325754
221	0xbcb2b45c	-0.021814518
222	0x3c316e94	0.010829587
223	0x3c631884	0.013860825
224	0xbb81e66d	-0.0039642365
225	0x3ce28b09	0.027654188
226	0x3cc333b4	0.023828365
227	0x3c56fbfa	0.013121599
228	0x3badb3e8	0.0053009875
229	0x3ad89e42	0.0016526657
230	0x3b9d0c94	0.004792759
231	0x3be993f7	0.0071282345
232	0xbc117b35	-0.0088794725
233	0xbc029ac5	-0.00797147
234	0xbc2860ff	-0.010277032
235	0xbc3ad436	-0.011403134
236	0x3c8dfc68	0.01733227
237	0x3c59ad7b	0.01328599
238	0xbc1b6520	-0.009484559
239	0x39b6a930	0.000348398
240	0x3c558df9	0.013034337
241	0x3b925d08	0.0044666566
242	0x3cba81de	0.022767004
243	0x3b6559fa	0.0034996257
244	0x3b9e6c15	0.0048346617
245	0x3be83410	0.0070862845
246	0x3bd29234	0.00642612
247	0x3c0cceb2	0.008594202
248	0x3c1b44a7	0.009476817
249	0x3bd12e46	0.00638369
250	0x3c28ab73	0.010294783
251	0x3c4d1d4c	0.012519192
252	0x3b94ef4c	0.004545128
253	0x3b8f1471	0.0043664505
254	0xbc0d66fe	-0.008630512
255	0xbc842214	-0.016129531

e_conv2.bias f4 [32]
0	0xbb1328ae	-0.0022454667
1	0x3d457972	0.048211522
2	0x3d870324	0.06592396
3	0xbd258142	-0.040406473
4	0x3d0714d3	0.032978844
5	0xba03d6b4	-0.00050292467
6	0x9e55045e	-1.1277029e-20
7	0xb8602a40	-5.344511e-05
8	0x3d4d7233	0.050157737
9	0xac8ccd3f	-4.001826e-12
10	0xbbb899c7	-0.005633566
11	0x3d4df834	0.050285533
12	0xbd5299e5	-0.051416297
13	0xb5a830e4	-1.2531204e-06
14	0x3c0bbf87	0.00852955
15	0xa6e84e73	-1.6119498e-15
16	0xbaf8f62f	-0.0018994267
17	0xbbb63634	-0.0055606607
18	0x3d7a89c5	0.061166544
19	0x3d49bdc8	0.049253255
20	0xa686e96e	-9.361389e-16
21	0x3af91488	0.0019003311
22	0x3d0f7b2d	0.03502958
23	0xa852f631	-1.1710726e-14
24	0xba73663c	-0.00092849485
25	0x3cf20986	0.029545557
26	0xbc043727	-0.00806979
27	0x3bdbf24f	0.006712235
28	0x3d532697	0.051550474
29	0x3b243057	0.0025053227
30	0x3d3e3d61	0.046445254
31	0x3c66a18d	0.014076603

e_conv3.weight f4 [32, 32, 3, 3]
0	0x3c6f44d8	0.014603816
1	0x3c5c97cb	0.013463925
2	0x3ccb2d03	0.024801737
3	0xbb9e3dcf	-0.0048291455
4	0x3c08721c	0.008327987
5	0x3b4d3e6d	0.0031317726
6	0xbc1bc015	-0.009506245
7	0xbc27ba03	-0.01023722
8	0xbb38fbff	-0.0028226373
9	0x3c350ed8	0.011050902
10	0x3a676730	0.0008827327
11	0x3c6ec92f	0.014574333
12	0x3ccc1b88	0.024915472
13	0x3d2ec178	0.042664975
14	0x3c6e9e5f	0.014564126
15	0x3c991be2	0.018690053
16	0x3d265c1e	0.040615194
17	0x3c8be527	0.017077042
18	0x3ca96fe8	0.020683244
19	0x3c95da8a	0.018292684
20	0x3c1f6718	0.009729169
21	0x3c0a72af	0.008450194
22	0x3ca54758	0.02017562
23	0x3b401375	0.0029308472
24	0x3cbf71a4	0.023369618
25	0x3a91e924	0.0011132103
26	0x3d0975dd	0.03355967
27	0x3c97d45c	0.018533878
28	0x3c16a33b	0.009194191
29	0x3c692c2e	0.014231725
30	0x3d0d9400	0.034564972
31	0x3c8a9130	0.016914934
32	0x3b3e392b	0.0029025774
33	0x3cd22c78	0.02565597
34	0xbbd7ca00	-0.0065853596
35	0x3ca6ae92	0.020346913
36	0x3c8cd442	0.017191056
37	0x3c639c4d	0.0138922455
38	0x3cef13db	0.029184273
39	0x3ccdb7dd	0.025112087
40	0xbbe8f2f6	-0.0071090413
41	0xbb03ab00	-0.0020090938
42	0x3b609307	0.0034267323
43	0x3c4f0f28	0.012637891
44	0x3c4290b8	0.011875324
45	0x2df3f16d	2.7733116e-11
46	0x305d7558	8.0566087e-10
47	0x2e0cdc83	3.202817e-11
48	0xae6d97e8	-5.402248e-11
49	0x2df47d81	2.7795323e-11
50	0x2e11ff51	3.319595e-11
51	0xaf987e73	-2.7738487e-10
52	0xaf96824f	-2.737743e-10
53	0xab89190d	-9.741388e-13
54	0x140b93ce	7.046856e-27
55	0x149e3585	1.5975033e-26
56	0x94d511ee	-2.1514576e-26
57	0x95286331	-3.4005578e-26
58	0x94647abc	-1.15352634e-26
59	0x950b6daf	-2.8157352e-26
60	0x155bc0ed	4.437889e-26
61	0x1475233b	1.2376287e-26
62	0x94b246d5	-1.8001345e-26
63	0x80008955	-4.9265e-41
64	0x8000890c	-4.9163e-41
65	0x000089e4	4.9466e-41
66	0x800089af	-4.9392e-41
67	0x80008a27	-4.956e-41
68	0x800089e5	-4.9467e-41
69	0x000088db	4.9094e-41
70	0x00008a13	4.9532e-41
71	0x000089c8	4.9427e-41
72	0xbb97e847	-0.004635844
73	0xbc38a551	-0.011269883
74	0xbc55bca6	-0.013045466
75	0x3c1b5205	0.009480004
76	0x3bea3c9d	0.007148339
77	0xbc18d1f2	-0.009327399
78	0x3a9965d0	0.0011703316
79	0x3c83b7bb	0.01607882
80	0x3d0e07a5	0.03467526
81	0x00008940	4.9236e-41
82	0x0000adc6	6.2338e-41
83	0x00008984	4.9331e-41
84	0x00008c93	5.0429e-41
85	0x8000899c	-4.9365e-41
86	0x800089fc	-4.95e-41
87	0x000088f4	4.913e-41
88	0x80008a75	-4.9669e-41
89	0x00009393	5.294e-41
90	0x3c256321	0.010094435
91	0x3bd51700	0.006502986
92	0x3d118633	0.035528373
93	0x3c0346fd	0.00801253
94	0x3d26a593	0.040685248
95	0x3d0b3883	0.03398944
96	0x3c294476	0.010331264
97	0x3c51201e	0.012764005
98	0x3c126276	0.008934608
99	0x3d03fbeb	0.03222267
100	0x3c99e046	0.0187837
101	0x3d04f795	0.032462675
102	0x3c116dbf	0.008876263
103	0x3c25fa94	0.010130543
104	0x3c3999ff	0.011328219
105	0x3af42ba5	0.001862873
106	0x3b955550	0.004557289
107	0x3c9c1053	0.019050753
108	0x3ce8d797	0.028423114
109	0x3ac4083d	0.0014956068
110	0x3d6bdbb4	0.057582572
111	0x3c43e61e	0.01195672
112	0xbab40071	-0.0013733042
113	0x3cd3224c	0.02577319
114	0x3cb4e978	0.022083983
115	0x3a865302	0.0010248127
116	0x3c0b1a33	0.008490133
117	0x800089e0	-4.946e-41
118	0x00009583	5.3635e-41
119	0x80008a4b	-4.961e-41
120	0x1adb90f9	9.081049e-23
121	0x0000896e	4.93e-41
122	0x00008a11	4.9529e-41
123	0x800089e4	-4.9466e-41
124	0x80008a0c	-4.9522e-41
125	0x00008a0f	4.9526e-41
126	0x3adfa8f7	0.0017063905
127	0xbb31da04	-0.0027138004
128	0x3b4677d3	0.0030283823
129	0xbaffb07c	-0.0019507552
130	0x3a07c646	0.00051793864
131	0x3b374461	0.002796434
132	0xba142804	-0.0005651715
133	0x3a08b69f	0.0005215201
134	0xbae47540	-0.0017429963
135	0x00008a3e	4.9592e-41
136	0x0000945d	5.3223e-41
137	0x800089bc	-4.941e-41
138	0x00008b98	5.0077e-41
139	0x00008999	4.9361e-41
140	0x00008a6d	4.9658e-41
141	0x800088f9	-4.9137e-41
142	0x00008c30	5.029e-41
143	0x000089b6	4.9401e-41
144	0x2712b248	2.0358217e-15
145	0xa980cec2	-5.7202086e-14
146	0x260b3ee5	4.831055e-16
147	0x29d1b0c5	9.312129e-14
148	0x2b648c82	8.1196866e-13
149	0x27706e55	3.3366502e-15
150	0x2772d8b7	3.3701728e-15
151	0x2c935ba1	4.188164e-12
152	0xa8c66395	-2.2025603e-14
153	0xba294289	-0.0006456753
154	0xbab92d54	-0.0014127889
155	0x3715ad65	8.921464e-06
156	0xba860e29	-0.0010227609
157	0xbac1f8bd	-0.0014798861
158	0xb9c514d7	-0.00037590295
159	0xba3563c3	-0.00069194677
160	0xba956f98	-0.0011401055
161	0x38a30d4c	7.7749224e-05
162	0x3b2e93f4	0.002663848
163	0x3d19e81e	0.03757488
164	0x3d0f924c	0.03505163
165	0xbc1cd054	-0.009571154
166	0xbcde3de1	-0.027129116
167	0xbb7d92c2	-0.003869221
168	0xbcb24470	-0.02176115
169	0x3c8eeea7	0.017447783
170	0x3cd4d438	0.0259801
171	0x3cdd9b34	0.027051546
172	0x3ca49b64	0.020093627
173	0x3b04b752	0.002025087
174	0x3bf56142	0.0074884007
175	0x3c8a20c7	0.016861333
176	0x3cbb9c86	0.022901785
177	0xbc223345	-0.009899919
178	0x3d309ffe	0.04312133
179	0x3ce59bc4	0.028028376
180	0xa5943731	-2.5711307e-16
181	0x25b40462	3.1227992e-16
182	0x231c8ec7	8.487011e-18
183	0xa5362b27	-1.5800604e-16
184	0xa507e8a6	-1.1788208e-16
185	0x260509b1	4.615678e-16
186	0xa5770834	-2.1426614e-16
187	0x24ac6236	7.4759485e-17
188	0x257b3d1d	2.1791486e-16
189	0x3841ccdd	4.620558e-05
190	0x3883b856	6.280902e-05
191	0x3816cc0c	3.595282e-05
192	0x38affb88	8.3915016e-05
193	0x38eccbb6	0.00011291301
194	0x38962cfd	7.160937e-05
195	0x389e26ce	7.541255e-05
196	0x38b9fcb0	8.868554e-05
197	0x3878c862	5.931443e-05
198	0xbc6988d3	-0.014253813
199	0x3c548a3a	0.012972409
200	0x3bdecf62	0.0067996243
201	0xb9a1c306	-0.00030853617
202	0x3b3ff8ab	0.0029292505
203	0x3bf453b4	0.0074562673
204	0x3c88b91f	0.016689835
205	0x3bc4c114	0.006004462
206	0x3c09cc5e	0.008410541
207	0x17815929	8.358937e-25
208	0x176e60dd	7.7024206e-25
209	0x151f3c45	3.215734e-26
210	0x169f3dd3	2.5726852e-25
211	0x97401c8c	-6.2074577e-25
212	0x969ed768	-2.5662217e-25
213	0x96796e73	-2.0148911e-25
214	0x976e0c5f	-7.691756e-25
215	0x16d09666	3.3699127e-25
216	0xb755d03d	-1.2744274e-05
217	0xb7d79202	-2.5697987e-05
218	0xb7f45029	-2.9124394e-05
219	0xb714d063	-8.870006e-06
220	0xb76040b4	-1.3366505e-05
221	0xb84a9ecb	-4.830844e-05
222	0x341d4501	1.4646868e-07
223	0xb71b2ebe	-9.249603e-06
224	0xb7cf9049	-2.4743511e-05
225	0xbc0aa615	-0.008462449
226	0xbc03cd79	-0.008044594
227	0xbd19ddf2	-0.03756518
228	0x3b50f14b	0.0031882103
229	0x3bddd59c	0.006769849
230	0xbccc4556	-0.024935406
231	0xbb212e41	-0.002459422
232	0xbbb75ec9	-0.005596016
233	0xbcc8f5bc	-0.024531238
234	0x3cdbded6	0.026839655
235	0xbb7692f0	-0.0037624203
236	0xbcb6392c	-0.022244059
237	0x3c9ceef5	0.019156912
238	0xbb2fba0d	-0.0026813776
239	0xbcb6f1b1	-0.022332044
240	0x3ca96c43	0.020681506
241	0xbbde8c86	-0.006791654
242	0xbcc5a2ea	-0.024125535
243	0xbd0722a3	-0.032992017
244	0xbc803d15	-0.015654126
245	0xbd1be133	-0.038056564
246	0xbbc72764	-0.006077694
247	0x3c44bd74	0.01200806
248	0xbbbd1506	-0.0057703285
249	0xbc973821	-0.018459382
250	0xb8a1b95f	-7.711606e-05
251	0xbc910f5b	-0.017707517
252	0x3caa254f	0.020769743
253	0x3d173c5d	0.0369228
254	0x3c5d4d69	0.013507226
255	0xbcf1aca6	-0.02950127

e_conv3.bias f4 [32]
0	0x3d75b5cd	0.05998783
1	0xa6d20e00	-1.4575472e-15
2	0x3d76bb9a	0.060237505
3	0x3d73c693	0.059515547
4	0xbb88cf1a	-0.004175079
5	0x3ce5007d	0.027954334
6	0xb9d6205a	-0.00040841365
7	0xbd0e8dd3	-0.034803223
8	0x3d6af77b	0.057364922
9	0x3cd5e546	0.026110303
10	0x3b7ee5d9	0.0038894324
11	0xa645cfb0	-6.8629574e-16
12	0x3d5d48a3	0.05402435
13	0x3cefcca2	0.029272381
14	0x3c083a22	0.008314641
15	0x3bc74567	0.0060812715
16	0x3d7fe492	0.06247384
17	0xb98fb99e	-0.0002741338
18	0x3c43470b	0.011918793
19	0x3d8329e4	0.064044744
20	0xbb258d6e	-0.00252613
21	0xac0a842a	-1.9684345e-12
22	0xb9272722	-0.00015940939
23	0x3d60bd99	0.054868314
24	0x3c96eea4	0.01842434
25	0x3d1b3a7f	0.037897583
26	0xbb033d81	-0.0020025673
27	0x3b5a9f2b	0.0033359032
28	0xba01d68a	-0.0004952928
29	0x3cbdfe89	0.02319266
30	0xba0874ca	-0.0005205391
31	0xaf2c3e70	-1.5665491e-10

e_conv4.weight f4 [32, 32, 3, 3]
0	0x3c9e3abf	0.019315122
1	0x3c64bf6b	0.013961653
2	0x3c95f3e4	0.018304773
3	0x3ca6e5d4	0.020373262
4	0xba8496b3	-0.0010115713
5	0x3ca33177	0.019921048
6	0x3d0c1e0e	0.03420835
7	0x3a97d074	0.001158251
8	0xbc04a801	-0.008096696
9	0x80008976	-4.9312e-41
10	0x80008a87	-4.9694e-41
11	0x00008c1f	5.0266e-41
12	0x00008c47	5.0322e-41
13	0x80008945	-4.9243e-41
14	0x80008a5c	-4.9634e-41
15	0x000089a7	4.938e-41
16	0x80009dec	-5.6652e-41
17	0x00008a75	4.9669e-41
18	0x3d1d1984	0.03835441
19	0x3c28bbde	0.010298697
20	0x3c9e308d	0.01931026
21	0x3cac732a	0.021051008
22	0xbbc98923	-0.006150381
23	0x3c19752b	0.009366314
24	0x3b4fb71c	0.0031694835
25	0x3c08246a	0.008309463
26	0x3cce1e86	0.02516104
27	0x3cb016e2	0.021495286
28	0x3d1a7f11	0.037718836
29	0x3cc91dbe	0.024550315
30	0x3bf8ec7a	0.0075965496
31	0x3c6798c9	0.014135548
32	0x3ca5509b	0.020180037
33	0xbc65cb5a	-0.014025534
34	0x3caa9a92	0.020825658
35	0x3cb005a2	0.021487061
36	0x3d3e9907	0.046532657
37	0x3bf2665b	0.0073974556
38	0xbc19b868	-0.009382345
39	0x3c9d0da1	0.019171538
40	0xbbcc93cd	-0.006243205
41	0x3ae0fee4	0.0017165807
42	0x3c84faf0	0.016232938
43	0xbbdb49fa	-0.0066921683
44	0xbb6c94a2	-0.0036099334
45	0x3cb6e4ef	0.02232596
46	0x3cd488d7	0.025944157
47	0x3c7e9d7c	0.015540477
48	0x3c87bdc9	0.016569989
49	0x3d2bc3d2	0.041934796
50	0x3caa826c	0.020814143
51	0x3b90dc65	0.0044208043
52	0x3cac89b0	0.021061748
53	0x3a3cf5c2	0.00072082516
54	0xa80e9d85	-7.91674e-15
55	0xa9baa6ff	-8.2890285e-14
56	0xaafa9f02	-4.4519255e-13
57	0x2c696466	3.3167024e-12
58	0xab64dd40	-8.130892e-13
59	0xac84d13b	-3.774895e-12
60	0x28b9988e	2.0605286e-14
61	0xab2c56ef	-6.122732e-13
62	0xab851d58	-9.458363e-13
63	0xbb80bfb1	-0.0039291014
64	0x3bb8a7cb	0.005635237
65	0x3d1c9b28	0.038233906
66	0x3c49cfc2	0.0123176
67	0x3bc1045b	0.005890412
68	0x3c6cec08	0.014460571
69	0x3cf8db0c	0.030377887
70	0x3b2252b8	0.0024768542
71	0x3c828437	0.015932186
72	0x3cb62cf8	0.02223824
73	0x3d427b85	0.04748108
74	0x3c467bf8	0.012114517
75	0xbc1bcab7	-0.00950878
76	0x3c0a9410	0.008458152
77	0x3be7fc19	0.007079613
78	0x3c8b8f39	0.017036067
79	0xbbafbf50	-0.0053633824
80	0xbb3b24ff	-0.0028555987
81	0xbc331aac	-0.010931652
82	0x3cbd6726	0.023120474
83	0xbba3c595	-0.004997919
84	0x3ca51a9d	0.020154292
85	0x3cc1fc18	0.023679778
86	0x3c3f6a50	0.011683062
87	0xba545708	-0.0008100127
88	0xbb07a0ec	-0.0020695282
89	0x3af067e6	0.0018341511
90	0x3c537ca8	0.012908138
91	0x3c5a2f0f	0.013316884
92	0x3ccaa150	0.024735123
93	0x3c97157e	0.018442865
94	0x3d0c805b	0.034302097
95	0x3ca9f13e	0.020744916
96	0xbc43bfb3	-0.01194756
97	0x3cf0288f	0.029316215
98	0xbbd7bdf6	-0.0065839244
99	0x0000a166	5.7899e-41
100	0x80008f3f	-5.1387e-41
101	0x80008ab7	-4.9762e-41
102	0x000092c7	5.2654e-41
103	0x80008972	-4.9306e-41
104	0x000089d8	4.9449e-41
105	0x0000918e	5.2215e-41
106	0x00008989	4.9338e-41
107	0x000089dc	4.9455e-41
108	0x3b29c2df	0.0025903506
109	0x3c97de2f	0.018538563
110	0x3bc48c70	0.0059981868
111	0x3b70f799	0.0036768673
112	0x3cba23e8	0.0227222
113	0x3c8a87f9	0.01691054
114	0x3ad348f4	0.0016119764
115	0xbc820811	-0.015872987
116	0x3bab7d7d	0.005233465
117	0x3bad279f	0.005284264
118	0x3c5ed319	0.013600134
119	0x3d0d945f	0.034565326
120	0xbcb0169d	-0.021495158
121	0x3b31ae55	0.0027111967
122	0x3c39b9df	0.011335819
123	0xbccfb039	-0.025352584
124	0xbc11d947	-0.008901901
125	0x3afee15a	0.0019445822
126	0x3d2275b4	0.03966303
127	0x3c7ec393	0.015549558
128	0xbc67d8f0	-0.014150843
129	0x3d018ed7	0.031630363
130	0x3c82dc49	0.01597418
131	0x3c8520cd	0.016250992
132	0x3d22efe7	0.03977957
133	0xbb8f8337	-0.0043796557
134	0xbcd46cd9	-0.025930809
135	0xbb1f78e5	-0.0024333533
136	0x3c8d8101	0.017273428
137	0x3b6d3d83	0.0036199994
138	0x3c655c5e	0.013999073
139	0x3bb0f828	0.0054006763
140	0x3ca5fd4b	0.020262381
141	0xbc8f983f	-0.017528651
142	0xbac661a1	-0.0015135297
143	0xbb5f7fad	-0.00341032
144	0x3c3e3c22	0.0116110165
145	0x3bae228a	0.005314176
146	0xbc46f453	-0.012143212
147	0xbb4f9b44	-0.003167824
148	0x3c8d3d03	0.017241007
149	0x3a922188	0.0011148909
150	0x3c34049f	0.01098743
151	0x3b825d98	0.0039784424
152	0x3c5e9a8a	0.01358665
153	0x3c631d34	0.013861943
154	0x3c51f6a4	0.012815151
155	0x3c2405ca	0.010011146
156	0x3ba0fa3e	0.0049126437
157	0x3baa09d0	0.005189158
158	0x3ca34659	0.019931005
159	0x3bfba3e9	0.0076794517
160	0x3c7e26bc	0.015512165
161	0x3c93dd16	0.018049758
162	0x3be6bd97	0.007041644
163	0x3b82b6fc	0.0039890986
164	0x3b2df9c8	0.0026546586
165	0x3c393769	0.011304715
166	0x3bda4d2f	0.006662033
167	0x3b5515f1	0.0032514299
168	0x3b909056	0.0044117374
169	0x3b631c84	0.0034654448
170	0x3b1ae4d5	0.002363493
171	0x3d2bef2a	0.04197613
172	0x3cb3549f	0.021890936
173	0x3cbe625b	0.023240259
174	0x3bd359f6	0.006449933
175	0xbb500d42	-0.0031746184
176	0x3b7ca085	0.0038547826
177	0xbcc910c0	-0.02454412
178	0xb93a6b8a	-0.00017778404
179	0x3a9338a1	0.0011232087
180	0xb48b7d80	-2.598208e-07
181	0xb1e2647e	-6.5888903e-09
182	0xb38b6374	-6.490782e-08
183	0xb518ed45	-5.6969685e-07
184	0xb4db5296	-4.0852018e-07
185	0x353cf662	7.039399e-07
186	0xb4c258af	-3.6199842e-07
187	0xb44368dd	-1.8198939e-07
188	0xb2362c6c	-1.0603895e-08
189	0x00008a54	4.9623e-41
190	0x00008a31	4.9574e-41
191	0x00008a41	4.9596e-41
192	0x0000a9d4	6.0923e-41
193	0x800089b5	-4.94e-41
194	0x0000a288	5.8305e-41
195	0x0114e680	2.7348683e-38
196	0x80008b21	-4.991e-41
197	0x0000890f	4.9167e-41
198	0xb57da78e	-9.449367e-07
199	0xb46524d7	-2.1340689e-07
200	0xb4c0e656	-3.5930378e-07
201	0xb3c95ed0	-9.377038e-08
202	0xb4e97521	-4.3484854e-07
203	0xb56d523b	-8.840904e-07
204	0x34246c7d	1.5313158e-07
205	0xb41038ea	-1.343175e-07
206	0xb55f3b9a	-8.3160705e-07
207	0x3d565062	0.052322753
208	0x3c8f7acc	0.017514609
209	0x3c8cd3c4	0.017190821
210	0x3cf36746	0.02971233
211	0x3c33c1a2	0.010971459
212	0x3cf5e088	0.030014291
213	0x3c5a7639	0.013333851
214	0x3b987650	0.004652776
215	0x3bfede37	0.007777955
216	0x3cf3f1f1	0.029778453
217	0x3bcb3185	0.0062009715
218	0x3ca69bb9	0.020337926
219	0x3b723d9e	0.0036962996
220	0x3a552b79	0.0008131783
221	0x3c2fde56	0.010734161
222	0x39398e82	0.00017696063
223	0x3a9aebca	0.0011819538
224	0x3bc74810	0.0060815886
225	0x3ce55243	0.027993327
226	0x3c887c0e	0.016660716
227	0x3c802983	0.015644794
228	0x3cee1a84	0.029065378
229	0x3ca087e8	0.019596055
230	0x38ac8039	8.2254825e-05
231	0x3c8a202f	0.01686105
232	0xbc0e19ff	-0.00867319
233	0xbc3bb1ea	-0.011455992
234	0x3cebd7fd	0.028789515
235	0x3c0a7656	0.008451065
236	0xbc01e864	-0.007928941
237	0x3c618f7d	0.01376712
238	0x3c05bf30	0.008163258
239	0x3c4bdcd3	0.012442785
240	0x3b97a213	0.004627475
241	0x3c76c35c	0.015061226
242	0x3a6e86a3	0.0009099042
243	0xbc2f3aa8	-0.010695137
244	0xbc5f3b32	-0.013624953
245	0xbc2db74f	-0.010602786
246	0xbc355af9	-0.011069053
247	0xbc67607a	-0.014122123
248	0xbc16ac39	-0.0091963345
249	0xba0ba41c	-0.00053268834
250	0xbaca87cd	-0.0015451849
251	0x3b7a818b	0.0038224186
252	0xb3913170	-6.761081e-08
253	0xb33eda1f	-4.4436202e-08
254	0x3240c1db	1.12199485e-08
255	0xb40cc949	-1.3111743e-07

e_conv4.bias f4 [32]
0	0x3cd08284	0.02545286
1	0xbc79f798	-0.015256785
2	0xb636631a	-2.7177798e-06
3	0x3d11b226	0.035570286
4	0xbb0363d5	-0.0020048518
5	0xba3e9904	-0.0007270726
6	0x3bec3d0d	0.0072094263
7	0x3d6171b6	0.055040084
8	0x3d5d5041	0.054031614
9	0x3d52f5c4	0.05150391
10	0x3ab00095	0.0013427908
11	0x3c8f1df8	0.017470345
12	0x3d472e53	0.048628163
13	0xb9dce81d	-0.00042134608
14	0x3d5c0771	0.053718034
15	0x3d888587	0.06666093
16	0x3cadbecb	0.021209141
17	0xb9f7e9df	-0.0004728576
18	0xa231c455	-2.409191e-18
19	0x3d0f34e7	0.03496256
20	0x3b2dcc7c	0.0026519587
21	0xbd15b9d3	-0.03655417
22	0x3d802bb9	0.062583394
23	0xbb16e80d	-0.0023026497
24	0x3d335489	0.04378179
25	0xa136ab84	-6.1891e-19
26	0x3d6ec3f9	0.058292363
27	0xa6759c50	-8.5213293e-16
28	0x3d2de2bd	0.042452563
29	0x3cd9ac30	0.026571363
30	0xb5d06586	-1.5526755e-06
31	0x3d80e55b	0.06293746

e_conv5.weight f4 [32, 64, 3, 3]
0	0xb689a0cc	-4.1016374e-06
1	0xb5fc0eb1	-1.8779739e-06
2	0xb60af94b	-2.070871e-06
3	0x3744cb4f	1.1729847e-05
4	0xb66f7a8b	-3.5685105e-06
5	0xb64e4817	-3.0738354e-06
6	0xb6f70a58	-7.362378e-06
7	0xb67b1e5e	-3.741959e-06
8	0xb6bd0ca4	-5.6341105e-06
9	0x142a28cd	8.590853e-27
10	0x9d555dcd	-2.823881e-21
11	0x80008a31	-4.9574e-41
12	0x0000890d	4.9165e-41
13	0x800088f2	-4.9127e-41
14	0x00008ab1	4.9753e-41
15	0x80008a8b	-4.97e-41
16	0x80008bd2	-5.0158e-41
17	0x0000a47b	5.9004e-41
18	0xb5a39e81	-1.2190577e-06
19	0xb5196eff	-5.715846e-07
20	0xb5177e5f	-5.643578e-07
21	0xb5d587cd	-1.590926e-06
22	0xb5396d31	-6.9076765e-07
23	0xb58788f0	-1.0098138e-06
24	0xb58c0379	-1.0431824e-06
25	0xb55c43bd	-8.205496e-07
26	0xb5a2c33f	-1.2126765e-06
27	0xb8889647	-6.512977e-05
28	0xb8039071	-3.1367355e-05
29	0xb6bbe05f	-5.5991545e-06
30	0xb707d69a	-8.096593e-06
31	0xb6f698bf	-7.3491533e-06
32	0xb701e1dc	-7.741586e-06
33	0xb734b18b	-1.07701735e-05
34	0xb70a0321	-8.2261695e-06
35	0x37ab826d	2.0445523e-05
36	0xb529bc90	-6.32318e-07
37	0xb4314488	-1.6509341e-07
38	0xb3f9f348	-1.1639219e-07
39	0xb46e45cc	-2.2190869e-07
40	0xb475e973	-2.2902331e-07
41	0xb45bf940	-2.0486641e-07
42	0xb46bba38	-2.1953826e-07
43	0xb41761e5	-1.4098585e-07
44	0xb47a0cb0	-2.328768e-07
45	0xb79c2834	-1.861537e-05
46	0xb75407b7	-1.2637981e-05
47	0xb74e0c53	-1.2281426e-05
48	0xb718c9d1	-9.106895e-06
49	0xb75fd8a3	-1.3342275e-05
50	0xb75ba2a5	-1.3091286e-05
51	0xb7abd119	-2.0482157e-05
52	0xb791fdf4	-1.7403603e-05
53	0x3887fafd	6.484052e-05
54	0x9d2ad50e	-2.260946e-21
55	0x80009961	-5.5022e-41
56	0x00008900	4.9146e-41
57	0x00008966	4.9289e-41
58	0x00008a18	4.9539e-41
59	0x00008b9a	5.008e-41
60	0x80008e11	-5.0964e-41
61	0x81fc5148	-9.2686813e-38
62	0x80008a0e	-4.9525e-41
63	0xb627d8ca	-2.5011127e-06
64	0xb59f73fd	-1.188018e-06
65	0xb5b47d45	-1.3447503e-06
66	0x360a9a27	2.065333e-06
67	0xb608c30c	-2.0379111e-06
68	0xb5e24014	-1.6856961e-06
69	0xb60cc9b9	-2.0979044e-06
70	0xb68d2696	-4.2066195e-06
71	0x370a8271	8.255812e-06
72	0xb6a58fc4	-4.9341197e-06
73	0xb608b15b	-2.0368814e-06
74	0xb7178885	-9.032087e-06
75	0xb80921a6	-3.2694683e-05
76	0xb64518e5	-2.9369778e-06
77	0xb6913d38	-4.3284635e-06
78	0x38bfbfa7	9.143288e-05
79	0xb6951aa5	-4.443648e-06
80	0x36d4fffe	6.3478938e-06
81	0xb5c51fda	-1.4686914e-06
82	0x36c32ce6	5.8166797e-06
83	0xb629651f	-2.5241823e-06
84	0xb590d967	-1.0792108e-06
85	0xb55a2a8f	-8.127326e-07
86	0xb752c29c	-1.2562286e-05
87	0xb5bb680f	-1.3962871e-06
88	0x369f549d	4.7484195e-06
89	0xb5cbe68b	-1.5191775e-06
90	0x36dda659	6.6056787e-06
91	0xb5a9919f	-1.2633863e-06
92	0xb59e5c7d	-1.1798835e-06
93	0xb5d3321d	-1.573531e-06
94	0xb5e19796	-1.6807924e-06
95	0xb5d7a03d	-1.6065384e-06
96	0xb623d150	-2.4410729e-06
97	0xb618b2d4	-2.2753857e-06
98	0xb6b72e09	-5.459184e-06
99	0x000095c2	5.3723e-41
100	0x00008cb8	5.048e-41
101	0x00009728	5.4225e-41
102	0x000088c8	4.9068e-41
103	0x000088e7	4.9111e-41
104	0x80008e5a	-5.1066e-41
105	0x80009635	-5.3884e-41
106	0x80008949	-4.9249e-41
107	0x800088fa	-4.9138e-41
108	0xb63ab4fa	-2.7821502e-06
109	0xb5ad5b38	-1.2916053e-06
110	0xb5e75b87	-1.7237479e-06
111	0xb560d5d7	-8.375768e-07
112	0xb5fee039	-1.8989732e-06
113	0xb61f049f	-2.3695536e-06
114	0xb65f04bd	-3.3232348e-06
115	0xb6bf9a3c	-5.710199e-06
116	0xb669688b	-3.4780558e-06
117	0xac48329d	-2.8449805e-12
118	0xabbaee71	-1.3282276e-12
119	0x2b9169f4	1.0332278e-12
120	0x2a39ef39	1.6514298e-13
121	0xac26f74a	-2.3727292e-12
122	0xadaba1cd	-1.9512303e-11
123	0xac9b7a26	-4.418926e-12
124	0xacadf43d	-4.9440716e-12
125	0xac9a9506	-4.393488e-12
126	0xb77e7f60	-1.5169237e-05
127	0xb72c0db1	-1.0255187e-05
128	0xb6f4da05	-7.2971475e-06
129	0xb76edcb3	-1.4237291e-05
130	0xb7919b40	-1.735764e-05
131	0xb746e587	-1.1855161e-05
132	0xb76d0132	-1.4126579e-05
133	0xb76870d2	-1.3854546e-05
134	0xb78273db	-1.5551157e-05
135	0xb6141e11	-2.207122e-06
136	0xb5be26c7	-1.4167389e-06
137	0xb59a5679	-1.1499061e-06
138	0xb60a95a0	-2.0650696e-06
139	0xb5d56ed2	-1.590199e-06
140	0xb6020470	-1.9374093e-06
141	0xb62e4d50	-2.5973022e-06
142	0xb6084829	-2.0307582e-06
143	0xb6463349	-2.953415e-06
144	0xb743d7ac	-1.1673121e-05
145	0xb715e386	-8.9340665e-06
146	0x370753a0	8.0660975e-06
147	0xb7b8aaf0	-2.2014108e-05
148	0xb72a0a3b	-1.0135172e-05
149	0xb7341d9d	-1.0735731e-05
150	0xb8a72c27	-7.9714046e-05
151	0xb7e70ae5	-2.7542419e-05
152	0xb77826d6	-1.4790994e-05
153	0xb63c8a5d	-2.809472e-06
154	0xb5cef4af	-1.5419408e-06
155	0xb5de3838	-1.6556651e-06
156	0xb60f4433	-2.1348358e-06
157	0xb5ba85df	-1.3897042e-06
158	0xb5d75b1e	-1.6045267e-06
159	0xb6246d5d	-2.4501562e-06
160	0xb5f4f2c5	-1.8250072e-06
161	0xb6332468	-2.669427e-06
162	0x80009141	-5.2107e-41
163	0x00008926	4.92e-41
164	0x000089f0	4.9483e-41
165	0x8000892d	-4.921e-41
166	0x80008970	-4.9303e-41
167	0x00008a2a	4.9564e-41
168	0x80008be7	-5.0188e-41
169	0x800088cc	-4.9073e-41
170	0x8b800828	-4.931608e-32
171	0xb5c9b631	-1.5028692e-06
172	0xb58938f5	-1.0223872e-06
173	0xb5aa97fe	-1.2710223e-06
174	0xb68c5754	-4.1824915e-06
175	0xb559906f	-8.104898e-07
176	0xb597e907	-1.1318197e-06
177	0xb62b38f3	-2.5514134e-06
178	0xb6463a95	-2.9538398e-06
179	0xb5f37831	-1.8139891e-06
180	0x8000a334	-5.8546e-41
181	0x0000890e	4.9166e-41
182	0x00008b90	5.0066e-41
183	0x800088c8	-4.9068e-41
184	0x00008a14	4.9533e-41
185	0x800089f5	-4.949e-41
186	0x800089a7	-4.938e-41
187	0x00008a20	4.955e-41
188	0x9891d432	-3.7695884e-24
189	0x000088d8	4.909e-41
190	0x00008d19	5.0616e-41
191	0x209bc804	2.639038e-19
192	0x800088ea	-4.9116e-41
193	0x00008949	4.9249e-41
194	0x0000894b	4.9251e-41
195	0x0006eebd	6.36656e-40
196	0x0000921d	5.2416e-41
197	0x00008a2e	4.957e-41
198	0x80008bb7	-5.012e-41
199	0x00008c08	5.0234e-41
200	0x00008b04	4.987e-41
201	0x1e00136d	6.780281e-21
202	0x00008911	4.917e-41
203	0x800088ef	-4.9123e-41
204	0x800088c1	-4.9058e-41
205	0x8000890f	-4.9167e-41
206	0x00008a89	4.9697e-41
207	0xb7869c77	-1.6046904e-05
208	0xb73e55d2	-1.1344864e-05
209	0xb7095053	-8.184538e-06
210	0xb739a9ed	-1.1066423e-05
211	0xb739760f	-1.1054347e-05
212	0xb84959f9	-4.8005928e-05
213	0x38172ab5	3.604098e-05
214	0x379a97a6	1.8428847e-05
215	0xb88507a4	-6.3433574e-05
216	0xb50b224f	-5.183146e-07
217	0xb4aeae2f	-3.253676e-07
218	0xb4d890c5	-4.033847e-07
219	0xb53bbe88	-6.994019e-07
220	0xb4eda17d	-4.4262188e-07
221	0xb58af366	-1.035264e-06
222	0x3495a60e	2.7874233e-07
223	0xb51361d9	-5.4904154e-07
224	0x33bbe6e6	8.749866e-08
225	0xb41f9643	-1.4862694e-07
226	0xb3cab392	-9.439022e-08
227	0xb53cd3c9	-7.0343646e-07
228	0xb43e2880	-1.7709863e-07
229	0x34e5f205	4.2830666e-07
230	0x362329cf	2.4313229e-06
231	0xb4c22035	-3.615875e-07
232	0xb453a3dd	-1.971052e-07
233	0xb4e5acfd	-4.278044e-07
234	0xb64ac455	-3.0214626e-06
235	0xb638762d	-2.7486924e-06
236	0xb5e576d7	-1.7096417e-06
237	0xb610e10c	-2.1588667e-06
238	0xb5bced99	-1.4076242e-06
239	0xb60b8d67	-2.079492e-06
240	0xb64d9b48	-3.0637766e-06
241	0xb635a9a9	-2.7069857e-06
242	0xb63c84bb	-2.8091442e-06
243	0x8000892a	-4.9205e-41
244	0x0000891f	4.919e-41
245	0x800088f5	-4.9131e-41
246	0x80008af7	-4.9851e-41
247	0x80008940	-4.9236e-41
248	0x00008961	4.9282e-41
249	0x00008aa5	4.9736e-41
250	0x80008945	-4.9243e-41
251	0x00008946	4.9244e-41
252	0x00009095	5.1866e-41
253	0x8000a554	-5.9309e-41
254	0x000088ca	4.907e-41
255	0x00009a9b	5.5462e-41

e_conv5.bias f4 [32]
0	0xb8a6450c	-7.928358e-05
1	0x3d5901a1	0.05298007
2	0xb989e50f	-0.00026301338
3	0x3d0e6835	0.03476735
4	0x3c105291	0.008808748
5	0x3d7b0330	0.061282337
6	0xbb031480	-0.0020001233
7	0x3d1f7688	0.0389314
8	0xbc92b0cf	-0.017906575
9	0x3d0fde4c	0.03512411
10	0x3d463105	0.048386592
11	0xbcd21ad1	-0.025647553
12	0xbb46de93	-0.0030345067
13	0x3bfb81b8	0.007675376
14	0x3cdcb3d5	0.02694122
15	0x3d806a40	0.062702656
16	0x3d6d8359	0.05798659
17	0x3d30864f	0.043096837
18	0x3d282072	0.041046567
19	0x00008a29	4.9563e-41
20	0x3be61b2c	0.007022282
21	0xba3ba4c1	-0.0007158034
22	0x3d0d47d4	0.03449233
23	0x3a870c51	0.0010303353
24	0xb9a191ef	-0.00030817042
25	0x3d347daa	0.044065155
26	0x3c11d3a0	0.008900553
27	0x3c13b5c4	0.009015504
28	0x3ca27fa0	0.019836247
29	0x3c8f067c	0.017459147
30	0x3d151d9e	0.0364052
31	0xb87c773f	-6.019254e-05

e_conv6.weight f4 [32, 64, 3, 3]
0	0xa68abc48	-9.626707e-16
1	0xb60a7eb6	-2.0637358e-06
2	0xb6e56d90	-6.8374866e-06
3	0xa62b1d3e	-5.9367173e-16
4	0xb52f1dd6	-6.5236e-07
5	0xb6662c41	-3.429843e-06
6	0xa6186e7f	-5.2885344e-16
7	0x2b93611d	1.0471933e-12
8	0xa9a694ca	-7.397692e-14
9	0x394953a5	0.00019200014
10	0xb8a609c1	-7.9173136e-05
11	0xb880af44	-6.1361614e-05
12	0xb8a0abf0	-7.6614204e-05
13	0x37d3cedf	2.5249492e-05
14	0xb8ad4b43	-8.2633014e-05
15	0xb9079ac0	-0.00012932252
16	0xb88f11f5	-6.822116e-05
17	0x382dcf56	4.143951e-05
18	0xba71bf9a	-0.0009221971
19	0xb82ae805	-4.0747243e-05
20	0x36a442e1	4.8953666e-06
21	0xb8f93637	-0.000118833435
22	0xb8e74550	-0.00011027849
23	0xb9241023	-0.0001564627
24	0xb88aeb7b	-6.6242144e-05
25	0xb8faf975	-0.00011967394
26	0xba72fc4b	-0.0009269162
27	0xb6cc2ccb	-6.0848884e-06
28	0xb780bdfc	-1.5347257e-05
29	0xb7eecf94	-2.8468472e-05
30	0xb7dd78ff	-2.6401596e-05
31	0xb73c880b	-1.1237348e-05
32	0xb759213e	-1.2941948e-05
33	0xb86b3641	-5.6078894e-05
34	0xb77900c2	-1.4841733e-05
35	0x369f4fb6	4.747849e-06
36	0xb8e0aa05	-0.00010712821
37	0xb9792f83	-0.0002376419
38	0xb87a5867	-5.9686976e-05
39	0xb9bbda3a	-0.0003583001
40	0xba582191	-0.0008244748
41	0x39b0baba	0.00033708458
42	0xb922f574	-0.00015540962
43	0xb88e0762	-6.772463e-05
44	0x3a908693	0.0011026434
45	0x000088bb	4.905e-41
46	0x00008d41	5.0672e-41
47	0x000089f7	4.9492e-41
48	0x80008970	-4.9303e-41
49	0x00008e41	5.1031e-41
50	0x80008d52	-5.0696e-41
51	0x80008f2a	-5.1358e-41
52	0x17594b02	7.0211155e-25
53	0x8000890b	-4.9162e-41
54	0x80009255	-5.2494e-41
55	0x2720a38d	2.2293122e-15
56	0x014f77cc	3.8105845e-38
57	0x00008aee	4.9839e-41
58	0x80009ed6	-5.698e-41
59	0x00008cd0	5.0514e-41
60	0x80008e94	-5.1147e-41
61	0x00008929	4.9204e-41
62	0x000089c9	4.9428e-41
63	0x00008cc3	5.0496e-41
64	0x80008d91	-5.0784e-41
65	0x0000a2cd	5.8402e-41
66	0x80008bdb	-5.017e-41
67	0x80008fdd	-5.1608e-41
68	0x00008a7d	4.968e-41
69	0x800089ea	-4.9474e-41
70	0x0000a088	5.7588e-41
71	0x000088ca	4.907e-41
72	0xb88a88ca	-6.605832e-05
73	0x38e47644	0.00010893916
74	0x381dc694	3.7616657e-05
75	0x39aba142	0.00032735808
76	0xb736ac81	-1.08882095e-05
77	0x38b2dbe4	8.528659e-05
78	0x3a9f57f7	0.0012156953
79	0xb89c5d48	-7.456035e-05
80	0xb92d2568	-0.000165125
81	0x00008b0e	4.9883e-41
82	0xa43fe4ff	-4.161049e-17
83	0x80008f4b	-5.1404e-41
84	0x000089cd	4.9434e-41
85	0x00008972	4.9306e-41
86	0x00008c3b	5.0305e-41
87	0x00008a85	4.9691e-41
88	0x80008b76	-5.0029e-41
89	0x0eab6630	4.2253158e-30
90	0xb778a9f7	-1.4821525e-05
91	0xb5434737	-7.274679e-07
92	0xb7c219fa	-2.3138698e-05
93	0xb6f5cf92	-7.3257333e-06
94	0xb75480b9	-1.2666155e-05
95	0xb79653a0	-1.7920334e-05
96	0xb7ff3270	-3.0421856e-05
97	0xb68773db	-4.036801e-06
98	0xb868a822	-5.5469696e-05
99	0xb8cb1bf0	-9.684998e-05
100	0xba15bcd5	-0.0005712037
101	0x384f4f9e	4.9426795e-05
102	0xb9c29216	-0.00037111406
103	0xb98daef0	-0.00027023954
104	0xb7ee4973	-2.8406013e-05
105	0xb8d1b4e3	-9.9995894e-05
106	0xb8473b52	-4.7500544e-05
107	0xb9a5bbf3	-0.00031611286
108	0xb37a8e07	-5.8336834e-08
109	0xb7506306	-1.2420822e-05
110	0xb7e38cee	-2.7126134e-05
111	0xb297b963	-1.7663018e-08
112	0xb5a6a2f8	-1.2415394e-06
113	0xb72546ff	-9.851296e-06
114	0xb358667f	-5.038464e-08
115	0xb33eebe1	-4.4452353e-08
116	0xb2a77785	-1.949571e-08
117	0x00008d0f	5.0602e-41
118	0x00008b74	5.0026e-41
119	0x00008c20	5.0267e-41
120	0x800089ab	-4.9386e-41
121	0x000088cc	4.9073e-41
122	0x063bb99a	3.530715e-35
123	0x800099a4	-5.5116e-41
124	0x07b8d9b8	2.7813207e-34
125	0x000088e6	4.911e-41
126	0x2a6e319d	2.115586e-13
127	0xb56a9aea	-8.739722e-07
128	0xb42dccca	-1.6186382e-07
129	0xab206f2e	-5.699771e-13
130	0xaebfab90	-8.71615e-11
131	0xabdfe598	-1.5908828e-12
132	0xac11aa7e	-2.0700382e-12
133	0x2a021661	1.1554084e-13
134	0x2b77f25d	8.8088374e-13
135	0x00008a8c	4.9701e-41
136	0x000089e4	4.9466e-41
137	0x0000898c	4.9343e-41
138	0x8000a602	-5.9552e-41
139	0x8000b972	-6.6525e-41
140	0x800089a7	-4.938e-41
141	0x00008fcb	5.1583e-41
142	0x0e80f53f	3.17906e-30
143	0x800088d2	-4.9082e-41
144	0x80008a8c	-4.9701e-41
145	0x00008a44	4.96e-41
146	0x80008a19	-4.954e-41
147	0x800089c5	-4.9422e-41
148	0x000089d7	4.9448e-41
149	0x8000a1cf	-5.8046e-41
150	0x80009203	-5.2379e-41
151	0x80008a09	-4.9518e-41
152	0x80008950	-4.9258e-41
153	0x0000899f	4.9369e-41
154	0x80008c1f	-5.0266e-41
155	0x80008982	-4.9329e-41
156	0x80008dff	-5.0939e-41
157	0x00008a1f	4.9549e-41
158	0x80008ae7	-4.9829e-41
159	0x00008cee	5.0556e-41
160	0x80008b51	-4.9977e-41
161	0x80008c35	-5.0297e-41
162	0xba3ee0b7	-0.000728141
163	0xb8b27c94	-8.510906e-05
164	0xb8578441	-5.1383166e-05
165	0x39fd1cc0	0.0004827734
166	0xb9bbbba6	-0.00035807228
167	0xb79c120e	-1.8605057e-05
168	0xb90cdd38	-0.00013433851
169	0x34c19530	3.60576e-07
170	0x3a1f9b55	0.0006088515
171	0xb82be74c	-4.098499e-05
172	0xb88f9dce	-6.848165e-05
173	0xb83f7ee3	-4.565612e-05
174	0xb7d7522c	-2.5668262e-05
175	0xb8304999	-4.2030213e-05
176	0xb7fbac19	-3.000167e-05
177	0xb72dd5fb	-1.0361425e-05
178	0xb9b9e548	-0.00035456778
179	0xb89546fa	-7.118094e-05
180	0x000088cb	4.9072e-41
181	0x80008a0a	-4.9519e-41
182	0x80008a00	-4.9505e-41
183	0x80008af3	-4.9846e-41
184	0x000089ad	4.9389e-41
185	0x0000895c	4.9275e-41
186	0x80008aa9	-4.9742e-41
187	0x00008ae4	4.9825e-41
188	0x00008af8	4.9853e-41
189	0x00008a5e	4.9637e-41
190	0x80008a90	-4.9707e-41
191	0x000088d9	4.9092e-41
192	0x8000a8ad	-6.051e-41
193	0x800089b0	-4.9393e-41
194	0x82b39b6b	-2.6390892e-37
195	0x00008a17	4.9537e-41
196	0x00008a90	4.9707e-41
197	0x80008909	-4.9159e-41
198	0xb87117a4	-5.7480895e-05
199	0xb795b1cd	-1.7844979e-05
200	0xb781c31b	-1.5468851e-05
201	0xb6983c7a	-4.5369934e-06
202	0xb74140b6	-1.1518763e-05
203	0xb750cbf6	-1.24452545e-05
204	0xb70ad19c	-8.2742445e-06
205	0xb61cdab0	-2.3373104e-06
206	0x35424cb5	7.2382255e-07
207	0x00008be4	5.0183e-41
208	0x00008b00	4.9864e-41
209	0x00008984	4.9331e-41
210	0x80008af9	-4.9854e-41
211	0x80008963	-4.9285e-41
212	0x00009c58	5.6086e-41
213	0x000088c8	4.9068e-41
214	0x80008a95	-4.9714e-41
215	0x0000895f	4.928e-41
216	0x800089c4	-4.9421e-41
217	0x800088d4	-4.9085e-41
218	0x0000977a	5.434e-41
219	0x800088c6	-4.9065e-41
220	0x800088d3	-4.9083e-41
221	0x000089f2	4.9485e-41
222	0x00008915	4.9176e-41
223	0x00008c28	5.0279e-41
224	0x80008984	-4.9331e-41
225	0x00009f61	5.7174e-41
226	0x2a573112	1.9112861e-13
227	0xab1654a1	-5.340815e-13
228	0x8000894a	-4.925e-41
229	0x3613fd21	2.2052047e-06
230	0x36b741f8	5.4615048e-06
231	0x00008a6c	4.9656e-41
232	0x00008a2c	4.9567e-41
233	0x00009db9	5.658e-41
234	0xaa9f447e	-2.82916e-13
235	0xab402d9c	-6.82754e-13
236	0xb6806c70	-3.827321e-06
237	0xaabb83bc	-3.3309282e-13
238	0xac62d97b	-3.2237258e-12
239	0xb41b8927	-1.4485396e-07
240	0xab1f3195	-5.6556956e-13
241	0xad419dd5	-1.1005826e-11
242	0xaed3e28a	-9.6354105e-11
243	0x800097ea	-5.4496e-41
244	0x3257b342	1.2555406e-08
245	0xb3182b62	-3.5429714e-08
246	0x00008a65	4.9647e-41
247	0x2fe54052	4.170056e-10
248	0x31154b38	2.172511e-09
249	0x80008a0c	-4.9522e-41
250	0x80008c53	-5.0339e-41
251	0x000089b8	4.9404e-41
252	0xb884233a	-6.300812e-05
253	0xb904a1d9	-0.00012648794
254	0xb7451e25	-1.1749134e-05
255	0xb57c7faf	-9.406312e-07

e_conv6.bias f4 [32]
0	0xbbba9b98	-0.0056948178
1	0x3d1969fa	0.037454583
2	0x3d364894	0.04450281
3	0x3d38047d	0.044926155
4	0x9182bd85	-2.0627184e-28
5	0x3c1df775	0.009641518
6	0x3d723500	0.059132576
7	0x3ce3e213	0.027817762
8	0xbcbae2c9	-0.022813218
9	0xb974a39c	-0.00023330603
10	0x3cf21e96	0.0295556
11	0x3d5d97a5	0.054099698
12	0xbb1f9044	-0.0024347464
13	0x3ba43bf8	0.0050120316
14	0x3c7d88bd	0.0154744955
15	0x3c7c431f	0.015396862
16	0x3c66ace0	0.014079303
17	0xba2b7b82	-0.00065415364
18	0x3d502460	0.05081594
19	0x3d3c0c1b	0.045909982
20	0x3d643758	0.055716842
21	0x3d007411	0.03136069
22	0x3d1ab0c1	0.037766222
23	0xbbd919ee	-0.0066254055
24	0x3c5f75bb	0.013638909
25	0x3d8dcf87	0.06924348
26	0x3d6999ca	0.05703143
27	0x3d0d7d44	0.03454329
28	0xbcbe362c	-0.02321919
29	0x3d779375	0.06044336
30	0xa90a4a86	-3.0706794e-14
31	0xba8f3b3d	-0.0010927689
