snapshots_folder/Epoch100.pth (torch, 322220 bytes, 14 tensors)

e_conv1.weight f4 [32, 3, 3, 3]
0.00837961 -0.0029367534 0.016189413 0.0020791213 -5.663123e-05 0.0045960997 0.011611712 9.35842e-05
0.019081593 -0.02623546 0.005947852 -0.019053768 0.0016225261 0.031319123 -0.011135809 0.018614782
0.02129097 -0.012237801 -0.0048720217 -0.0131374225 -0.015869476 -0.0027404912 -0.0096212765 -0.035296444
-0.0067106397 -0.0016045901 -0.026938893 -0.006124131 0.0001815498 0.0034018927 0.04129049 0.025453791
-0.016813042 -0.004048641 0.024124784 -0.007966368 0.0131309545 0.014566698 0.00076279475 -0.024256159
-0.022855291 -0.002072101 -0.021991303 -0.020953033 -0.012861926 -0.009519667 -0.013899741 0.01377693
-0.008653789 0.014551688 0.012807356 -0.01018372 -0.0088424785 -0.010634935 -0.00084772526 -0.011800497
-0.036332335 0.016438758 -0.017685052 0.010245011 -0.01754166 -0.016823577 -0.021796472 -0.008649865
0.0021038635 0.018871045 0.004559952 0.03447956 0.04028461 -0.0056554414 0.021942463 0.012993686
-0.010432743 0.0013022744 -0.01748281 -0.01933998 0.0014916365 0.022563983 -0.017458644 -0.0023662986
-0.02323488 -0.08801464 -0.07006005 -0.12790361 -0.048353627 -0.02892911 -0.053544216 -0.07640981
-0.013072126 -0.09467056 -0.0714639 -0.045815177 -0.09551605 -0.05763613 0.0061917333 -0.040760767
-0.070830554 -0.041004233 -0.0814867 -0.06414318 -0.04825661 -0.07578651 -0.017755523 0.021196222
-0.023129884 -0.033787616 -0.037055105 -0.054313913 0.018887345 0.011933624 -0.009411449 -0.007644206
0.004900021 -0.00572187 -0.033864666 -0.0082343295 0.0023420453 -0.03161724 0.014083083 0.0009889778
-0.007867809 -0.012512413 -0.005969375 0.010256293 0.005117716 0.008944795 -0.030740231 -0.009531075
0.01011978 0.015941191 0.0033482434 0.016466204 -0.018132826 0.0035175167 -0.009428783 -4.398788e-06
-5.3811073e-06 -4.4513267e-06 -4.9999253e-06 -5.978408e-06 -5.0854533e-06 -3.8427547e-06 -4.719857e-06 -3.8776234e-06
-3.7032373e-06 -4.5798115e-06 -3.7637178e-06 -4.250137e-06 -5.0955227e-06 -4.3151554e-06 -3.2568903e-06 -4.0078717e-06
-3.2752782e-06 -2.8061797e-06 -3.6078777e-06 -2.8836455e-06 -3.283485e-06 -4.05539e-06 -3.3351955e-06 -2.4542219e-06
-3.081934e-06 -2.4273177e-06 0.032092184 0.037844125 0.04900798 0.037144087 0.0015487706 0.011129595
0.026336407 -0.030478572 0.024685785 0.054783743 0.024386633 0.04554628 0.041434765 0.023362061
0.03433597 0.013052637 -0.0024934623 0.032911696 0.077800244 0.07554127 0.08136677 0.06547923
0.035639036 0.045765683 0.025554348 0.01946246 0.035268933 -7.980433e-09 -1.1250633e-08 -9.486928e-09
-9.43991e-09 -1.36411415e-08 -1.1634535e-08 -5.2420996e-09 -7.752769e-09 -6.807757e-09 -2.0837618e-09 -3.271038e-09
-2.7850662e-09 -2.3098008e-09 -3.954859e-09 -3.4038292e-09 -8.5940005e-10 -1.6743013e-09 -1.5870493e-09 -5.5221105e-10
-8.635889e-10 -7.0560674e-10 -8.3041396e-10 -1.3233923e-09 -1.1122876e-09 -4.4448478e-10 -7.190191e-10 -6.166653e-10
-0.031594716 -0.07130907 -0.09440909 0.008016428 -0.052738894 -0.06734767 0.029474571 -0.012375724
-0.056738872 0.013534603 -0.033275694 -0.061491128 0.032992937 -0.016126782 -0.056718778 0.062406536
0.01635478 -0.0038654732 0.03363293 0.012563579 -0.03967927 0.06177705 0.014886435 -0.015568843
0.085861206 0.054187458 0.009818876 0.038691167 0.028295502 0.039205093 0.022313032 -0.014853929
0.0046540196 0.027718313 -0.005051855 0.012951771 0.03593633 0.013346808 0.05194834 0.0112326965
00000000: a24a 093c 8c76 40bb a99f 843c de41 083b
00000010: 5287 6db8 e19a 963b 0d3f 3e3c a342 c438
00000020: 0051 9c3c bfeb d6bc 33e6 c23b a616 9cbc
00000030: f1aa d43a 7b48 003d f872 36bc 077e 983c
00000040: 666a ae3c 0f81 48bc 7ba5 9fbb 583e 57bc
00000050: b400 82bc d099 33bb 8fa2 1dbc 0193 10bd
00000060: ede4 dbbb 1c51 d2ba f4ae dcbc efac c8bb
00000070: 675e 3e39 4af2 5e3b 3820 293d 7884 d03c
00000080: 81bb 89bc 76aa 84bb 57a1 c53c 5f85 02bc
00000090: 3723 573c 29a9 6e3c 4af6 473a dab4 c6bc
000000a0: 053b bbbc 16cc 07bb 1b27 b4bc b2a5 abbc
000000b0: d4ba 52bc 61f8 1bbc bdbb 63bc a2b8 613c
000000c0: 9fc8 0dbc 346a 6e3c f2d5 513c 9ed9 26bc
000000d0: 0be0 10bc 273e 2ebc e139 5eba df56 41bc
000000e0: 37d1 14bd 93aa 863c 3ee0 90bc b1da 273c
000000f0: 87b3 8fbc 99d1 89bc 848e b2bc 2ab8 0dbc
00000100: f9e0 093b 7397 9a3c a66b 953b 703a 0d3d
00000110: 7a01 253d 4851 b9bb aec0 b33c 78e3 543c
00000120: 18ee 2abc 14b1 aa3a 1c38 8fbc e16e 9ebc
00000130: 0483 c33a 1ad8 b83c 6e05 8fbc e713 1bbb
00000140: 1357 bebc 0541 b4bd a57b 8fbd 2af9 02be
00000150: 740e 46bd befc ecbc 2e51 5bbd bf7c 9cbd
00000160: 782c 56bc a3e2 c1bd aa5b 92bd b2a8 3bbd
00000170: eb9d c3bd dd13 6cbd 06e4 ca3b c3f4 26bd
00000180: 9c0f 91bd 0ef4 27bd 80e2 a6bd 805d 83bd
00000190: b9a8 45bd f535 9bbd 0874 91bc b3a3 ad3c
000001a0: e27a bdbc e264 0abd 18c7 17bd 4478 5ebd
000001b0: a2b9 9a3c 3f85 433c 7a32 1abc 3f7c fabb
000001c0: 5b90 a03b 867e bbbb adb5 0abd 48e9 06bc
000001d0: 007d 193b 1481 01bd bbbc 663c 97a0 813a
000001e0: fce7 00bc dd00 4dbc bf9a c3bb 030a 283c
000001f0: 83b2 a73b 308d 123c f0d2 fbbc 3a28 1cbc
00000200: 6fcd 253c 1a97 823c 346e 5b3b 22e4 863c
00000210: 4b8b 94bc 2386 663b 2f7b 1abc 4d99 93b6
00000220: 5c8f b4b6 9b5c 95b6 08c5 a7b6 229a c8b6
00000230: b6a3 aab6 03f1 80b6 435f 9eb6 881c 82b6
00000240: 2285 78b6 48ac 99b6 2e94 7cb6 669c 8eb6
00000250: 35fa aab6 e7ca 90b6 f390 5ab6 5b7b 86b6
00000260: dacc 5bb6 cd51 3cb6 de1e 72b6 a784 41b6
00000270: d859 5cb6 8913 88b6 39d2 5fb6 36b3 24b6
00000280: 39d3 4eb6 00e5 22b6 1873 033d 7102 1b3d
00000290: 97bc 483d 6624 183d 1e00 cb3a e858 363c
000002a0: 73bf d73c 33ae f9bc d839 ca3c eb64 603d
000002b0: 7ac6 c73c bc8e 3a3d 80b7 293d cb61 bf3c
000002c0: e0a3 0c3d bada 553c 5b69 23bb 6ace 063d
000002d0: bc55 9f3d 62b5 9a3d 9fa3 a63d f919 863d
000002e0: 3dfa 113d cc74 3b3d 5a57 d13c bd6f 9f3c
000002f0: 2876 103d 511a 09b2 cf48 41b2 f3fb 22b2
00000300: 2a2d 22b2 605a 6ab2 3ae1 47b2 ff1d b4b1
00000310: 0a31 05b2 aae9 e9b1 ed31 0fb1 b6c8 60b1
00000320: 6763 3fb1 72ba 1eb1 4fe3 87b1 cce8 69b1
00000330: e73a 6cb0 3d1d e6b0 551f dab0 66ca 17b0
00000340: ab61 6db0 a9f4 41b0 3043 64b0 bae2 b5b0
00000350: 24df 98b0 ac5b f4af 79a4 45b0 f681 29b0
00000360: 7669 01bd 7d0a 92bd 8e59 c1bd 5657 033c
00000370: bd04 58bd 93ed 89bd a874 f13c 8cc3 4abc
00000380: 0567 68bd 3dc0 5d3c 184c 08bd 1fde 7bbd
00000390: 9a23 073d 501c 84bc f351 68bd ff9d 7f3d
000003a0: 76fa 853c e153 7dbb afc2 093d 78d7 4d3c
000003b0: bb86 22bd ef09 7d3d 3ce6 733c 7614 7fbc
000003c0: 00d8 af3d abf3 5d3d 5adf 203c a17a 1e3d
000003d0: f8cb e73c 8595 203d d2c9 b63c e55d 73bc
000003e0: bf80 983b 8411 e33c 088a a5bb aa33 543c
000003f0: f931 133d 92ac 5a3c c8c7 543d 5809 383c

e_conv1.bias f4 [32]
0.15148056 0.1914174 0.1839555 0.064096086 0.12754776 -0.00096654764 0.016160684 -0.0003564024
0.027523316 -0.11366148 0.12275648 -4.006155e-08 0.015918663 0.072857596 -0.015696274 -0.0022240784
0.012248867 -0.029915387 0.10999227 -0.06262609 0.093469635 0.070483774 0.15459089 0.051667597
0.09568866 0.19903332 -0.00011902407 -0.005371572 0.10032896 -0.0054820683 0.12026175 0.17338856
00000000: b81d 1b3e ec02 443e d55e 3c3e cf44 833d
00000010: e19b 023e ea5f 7dba 6963 843c 85db bab9
00000020: 9478 e13c 5ac7 e8bd c067 fb3d 2410 2cb3
00000030: db67 823c 5d36 953d 7995 80bc d8c1 11bb
00000040: 79af 483c 1d11 f5bc a143 e13d 1c42 80bd
00000050: 026d bf3d cc59 903d 134d 1e3e 67a1 533d
00000060: 6bf8 c33d 64cf 4b3e 909c f9b8 0304 b0bb
00000070: 4579 cd3d eca2 b3bb cb4b f63d c58c 313e

e_conv2.weight f4 [32, 32, 3, 3]
-0.03008578 0.033485416 0.0020920218 -0.0072538643 0.023633745 0.033560734 -7.86963e-05 -0.03667083
-0.03272677 -0.0013437741 0.0033565839 0.0057829744 0.03613559 0.013090481 0.0014003033 -0.016292656
-0.0012860957 -0.020456713 0.0049105342 -0.022349482 0.010640918 -0.0027031058 -0.006230974 -0.00484423
-0.011766687 0.031388693 0.015873667 0.07672043 0.06077271 0.12118036 0.021694917 -0.007952868
0.07136791 0.05322985 0.02308439 0.06441308 -0.016637782 -0.0063939453 -0.012399695 -0.0003260615
-0.012221254 0.020569405 0.0071049547 -0.00546238 -0.018032853 5.9831e-41 -5.0522e-41 4.9686e-41
-5.0752e-41 5.0604e-41 5.0618e-41 -4.9089e-41 4.9316e-41 -6.243e-41 -0.09251205 -0.0555156
-0.09520117 -0.022068445 0.018162271 -0.028000155 -0.010514051 0.013785624 -0.031227125 -4.9455e-41
4.9822e-41 4.9239e-41 -4.9798e-41 4.9886e-41 4.9068e-41 -4.98e-41 -4.9145e-41 -4.9214e-41
0.005806087 0.06874297 0.1284704 -0.024544807 0.025703926 0.09763775 -0.06261117 -0.013177923
0.04210039 0.0011626522 -0.0039413217 -0.0019029861 -0.009434265 -0.0122412415 -0.007290682 -0.016192572
-0.017676855 -0.0096499575 -0.014623594 0.0046899174 0.006428791 -0.003284052 0.0125820935 -0.0069518983
-0.01781164 0.0039635003 0.02364692 -5.0832e-41 -5.9677e-41 5.5426e-41 -5.0734e-41 -5.3835e-41
-5.574e-41 5.6875e-41 -5.3862e-41 -5.3085e-41 0.0640262 0.07028994 0.06969737 0.011423916
0.027721213 0.0027281083 -0.043213677 -0.034915928 -0.059173048 0.006633718 0.017500632 -0.005257546
-0.011192556 0.0018548835 0.0005718262 -0.021038145 -0.009293914 -0.012934323 0.0014399139 0.005933185
0.00222407 0.014054975 0.016092915 0.0040032766 0.027251111 0.02890147 0.010340442 -2.022741e-39
6.40025e-40 3.926416e-39 2.050732e-39 -1.822298e-39 4.760547e-39 5.987004e-39 -5.244842e-39 -1.22204e-40
-0.06408226 0.000350421 0.072614655 -0.018104758 0.04847521 0.10685934 0.027634684 0.08821343
0.13068938 0.008611275 0.014878496 -0.011235302 -0.011442452 0.007705656 -0.0066566025 -0.025547644
-0.002301884 -0.008434553 0.022751823 0.01540693 0.01188994 0.0052848505 0.016364694 0.016153896
-0.0063337986 0.00013440769 0.01046001 0.016376112 -0.0055057216 -0.0049526505 -0.008861652 -0.026452502
-0.019415636 -0.0027939044 -0.020091698 -0.012801532 0.016233025 0.0034188926 0.0300182 0.03903754
-0.011000909 0.0145263085 0.038002633 0.0091271605 0.04342431 0.023771876 0.041740324 0.12994051
0.013828977 -0.025749153 0.055578593 0.011122258 0.02582756 0.08188617 -0.013039249 0.0141336275
0.01876578 0.018417345 0.021120114 -0.014330269 -0.0039608614 -0.01538625 -0.0023248394 0.074844904
0.035706345 0.026288828 0.05416268 -0.000423193 -0.0046580206 0.074523814 0.040774688 0.04810546
-0.0063543334 -0.01347238 0.015209699 -0.027671583 0.015820166 -0.0031040781 0.0099962475 0.029882954
0.021977836 -0.002313227 0.023804422 0.028085573 -0.009689568 0.02360371 0.00895651 0.023446605
-0.003614409 -0.007368333 5.0386e-41 4.9539e-41 -5.0082e-41 -5.0189e-41 4.9996e-41 4.9393e-41
5.0381e-41 -5.0137e-41 -5.0084e-41 0.015991243 0.015090868 0.0011230613 0.015997887 0.01364958
-0.003066774 0.014861014 0.014451939 -0.0017117109 0.046408523 0.011568874 0.011960922 0.03899742
00000000: 7476 f6bc 0128 093d 4d1a 093b d3b1 edbb
00000010: 8e9b c13c fb76 093d c109 a5b8 2734 16bd
00000020: 810c 06bd 9421 b0ba 22fa 5b3b 1b7f bd3b
00000030: ea02 143d 7579 563c 628a b73a 2d78 85bc
00000040: 3692 a8ba d694 a7bc 8ce8 a03b 4316 b7bc
00000050: 3f57 2e3c 9726 31bb 332d ccbb 59bc 9ebb
00000060: 10c9 40bc 6e91 003d 7e09 823c 9a1f 9d3d
00000070: ceec 783d 692d f83d 8ab9 b13c bf4c 02bc
00000080: 5729 923d 8b07 5a3d 7a1b bd3c 01eb 833d
00000090: f54b 88bc 4d84 d1bb 1728 4bbc 3cf3 aab9
000000a0: a83b 48bc 2b81 a83c aed0 e83b c4fd b2bb
000000b0: a2b9 93bc c9a6 0000 d68c 0080 818a 0000
000000c0: 7a8d 0080 108d 0000 1a8d 0000 d788 0080
000000d0: 7989 0000 08ae 0080 f576 bdbd 5364 63bd
000000e0: d5f8 c2bd e2c8 b4bc 0bc9 943c 9560 e5bc
000000f0: 2043 2cbc 19dd 613c 07d0 ffbc dc89 0080
00000100: e28a 0000 4289 0000 d18a 0080 108b 0000
00000110: c888 0000 d28a 0080 ff88 0080 3089 0080
00000120: fd40 be3b 1dc9 8c3d bf8d 033e 3112 c9bc
00000130: 0a91 d23c 4df6 c73d 493a 80bd 37e8 57bc
00000140: 7571 2c3d 2264 983a 3426 81bb 9e6d f9ba
00000150: 2d92 1abc 7d8f 48bc ace6 eebb 49a6 84bc
00000160: 0dcf 90bc db1a 1ebc cc97 6fbc e1ad 993b
00000170: 9ca8 d23b 4039 57bb 2025 4e3c c0cc e3bb
00000180: b7e9 91bc 40e0 813b 30b7 c13c b38d 0080
00000190: 5ba6 0080 819a 0000 6d8d 0080 1296 0080
000001a0: 619b 0080 8b9e 0000 2596 0080 fb93 0080
000001b0: 2b20 833d 2cf4 8f3d 7fbd 8e3d 602b 3b3c
000001c0: 9917 e33c 10ca 323b d300 31bd 0104 0fbd
000001d0: 705f 72bd a95f d93b 7c5d 8f3c 7e47 acbb
000001e0: fb60 37bc 901f f33a 9be6 153a 3058 acbc
000001f0: 8045 18bc 7cea 53bc 7ebb bc3a 2a6b c23b
00000200: b4c1 113b d646 663c 4ad5 833c eb2d 833b
00000210: b93d df3c c7c2 ec3c f56a 293c 9406 1680
00000220: 21f8 0600 40c1 2a00 9b54 1600 d3d7 1380
00000230: 78d6 3300 5531 4100 7c1c 3980 a854 0180
00000240: 8f3d 83bd b6b8 b739 feb6 943d 6e50 94bc
00000250: f18d 463d 12d9 da3d 2262 e23c 3ea9 b43d
00000260: 70d3 053e 4e16 0d3c efc4 733c 4614 38bc
00000270: 1f79 3bbc ba7f fc3b a11f dabb 4b49 d1bc
00000280: 34db 16bb 1431 0abc 0862 ba3c 596d 7c3c
00000290: 06ce 423c 8a2c ad3b 400f 863c 2d55 843c
000002a0: c18b cfbb caef 0c39 7660 2b3c 3227 863c
000002b0: 5769 b4bb d849 a2bb 7630 11bc ebb2 d8bc
000002c0: 8a0d 9fbc f019 37bb 5897 a4bc 84bd 51bc
000002d0: 1ffb 843c 800f 603b bae8 f53c d4e5 1f3d
000002e0: 283d 34bc c1ff 6d3c a6a8 1b3d 168a 153c
000002f0: b0dd 313d 3dbd c23c e7f7 2a3d 200f 053e
00000300: ef92 623c e3ef d2bc 61a6 633d 223a 363c
00000310: 5294 d33c f0b3 a73d 93a2 55bc bb90 673c
00000320: b1ba 993c f9df 963c 1704 ad3c 81c9 6abc
00000330: 1dca 81bb 9c16 7cbc 555c 18bb 4948 993d
00000340: d140 123d ab5b d73c b0d9 5d3d 01e0 ddb9
00000350: 4fa2 98bb f19f 983d 5c03 273d 3b0a 453d
00000360: 0338 d0bb 42bb 5cbc 1a32 793c 84af e2bc
00000370: 4b99 813c ca6d 4bbb 4dc7 233c 19cd f43c
00000380: dd0a b43c 8299 17bb 7e01 c33c b713 e63c
00000390: fec0 1ebc 915c c13c 53be 123c 1813 c03c
000003a0: b8df 6cbb 0f72 f1bb 758c 0000 188a 0000
000003b0: 9c8b 0080 e88b 0080 5e8b 0000 b089 0000
000003c0: 718c 0000 c38b 0080 9d8b 0080 1100 833c
000003d0: b03f 773c af33 933a 000e 833c 7da2 5f3c
000003e0: eefb 48bb 9c7b 733c d3c7 6c3c 7d5b e0ba
000003f0: dd16 3e3d 608b 3d3c bef7 433c c2bb 1f3d

e_conv2.bias f4 [32]
-0.002302529 -0.0073386123 0.048087057 -6.907397e-05 -0.04564339 0.037553027 -0.0014714488 0.02543906
0.06337203 -2.289701e-05 0.06408727 0.021166088 0.011858692 0.028949888 0.057890706 -0.0006401266
0.020763151 -2.1746855e-18 -0.00021217667 0.00035738727 0.001578248 -0.00010293356 -0.011984474 -0.022209262
0.03551444 -0.0008326058 -0.002161033 -2.6135513e-08 0.0091509605 -0.0004556935 0.051630873 -0.00026334942
00000000: 07e6 16bb be78 f0bb eff6 443d cedb 90b8
00000010: 90f4 3abd 34d1 193d a1dd c0ba 9365 d03c
00000020: 32c9 813d f412 c0b7 3040 833d 8164 ad3c
00000030: f64a 423c 5128 ed3c ce1e 6d3d 2bce 27ba
00000040: 7c17 aa3c a676 20a2 be7b 5eb9 b55f bb39
00000050: 37dd ce3a 09de d7b8 875a 44bc 33f0 b5bc
00000060: 9777 113d 3b43 5aba 1ea0 0dbb 9a80 e0b2
00000070: e9ed 153c 25ea eeb9 e57a 533d 2912 8ab9

e_conv3.weight f4 [32, 32, 3, 3]
0.030639112 0.021045268 -0.023798214 0.022614164 0.020129563 -0.022086475 0.026796594 0.018835776
-0.022197947 0.021591049 0.0077019255 -0.054541305 0.030720988 0.03517569 -0.04475532 0.03537328
0.019756293 -0.050286222 0.026234454 0.0137596885 -0.058555953 0.03288375 0.020326668 -0.041381087
0.026322445 0.043672305 -0.05760974 4.9232e-41 4.9456e-41 4.937e-41 4.9484e-41 -4.9518e-41
4.9662e-41 -4.9595e-41 4.9394e-41 4.9076e-41 0.019198501 -0.0042512463 -0.05449356 0.031719353
0.008606408 -0.056498732 0.025174143 0.0016350653 -0.060053498 0.021447487 0.016254876 -0.060679346
0.02823381 0.027363556 -0.052563842 0.0149120595 0.03441407 -0.048447944 0.00036622456 0.0020987547
-0.0008394518 0.00031188468 0.0022496798 -0.0004915287 -0.00026341542 0.0017452135 -0.0006851515 0.031077001
-0.0103406 -0.08518124 0.034049798 0.01530771 -0.07435775 0.0067420932 0.020818392 -0.06461806
0.04395231 0.009011744 -0.07257449 0.035342332 0.021027017 -0.067034446 0.02683652 0.012094682
-0.060512237 4.9455e-41 5.0166e-41 -4.9138e-41 -4.9994e-41 4.9934e-41 -4.972e-41 4.9986e-41
4.9836e-41 4.9584e-41 0.021655167 0.01891531 -0.057708718 0.032729067 0.017344208 -0.0494584
0.024586076 0.01131114 -0.045683302 0.017129576 0.031168032 0.012454725 0.019094603 0.032385156
0.0144650005 0.018602097 0.032282166 0.013736132 0.015803032 0.015686855 -0.04693946 0.023031903
0.018549016 -0.04105157 0.01368808 0.0129253855 -0.043081418 0.013548364 0.014540277 -0.042284857
0.03477036 0.02204804 -0.037125543 0.021962022 0.019158967 -0.035756297 0.018645247 0.025244035
-0.05185216 0.030214544 0.04078105 -0.058847357 0.025279788 0.02209822 -0.050150026 1.5622131e-38
-4.9698e-41 4.9924e-41 -4.9533e-41 -4.9708e-41 -4.9425e-41 4.9725e-41 4.9334e-41 -5.0186e-41
0.024313038 0.008187506 -0.06967418 0.043470494 0.010469765 -0.061120134 0.022987172 0.016169623
-0.061180267 5.4896e-41 -5.525e-41 6.2174e-41 5.3786e-41 5.6579e-41 6.262e-41 5.4194e-41
-5.1585e-41 5.9659e-41 2.6407189e-13 5.155327e-15 -2.1081652e-33 1.2105749e-13 1.5104953e-15 1.9673755e-36
6.138655e-14 7.9979784e-16 -2.2871803e-35 1.1754093e-08 3.2481435e-06 4.382297e-06 6.378368e-07 4.671996e-06
6.3789053e-06 2.0658613e-09 2.8340407e-06 3.8007888e-06 0.0039226348 -0.013709568 -0.05598314 0.012369874
-0.0066720755 -0.051948044 0.014368861 -0.00473549 -0.04972252 5.5744957e-12 1.8896645e-13 -3.078246e-22
9.957801e-12 4.1744925e-13 -7.2310077e-25 7.9070864e-12 4.0035127e-13 -2.3039255e-22 0.024817575 0.017171312
-0.06365735 0.02945966 0.009539238 -0.060364865 0.021229358 0.0050330865 -0.056067407 0.02908214
0.0013615632 -0.052409638 0.025191378 0.014923264 -0.047630895 0.020507297 0.008841933 -0.047928672
6.336403e-05 0.00024277405 0.00012656873 0.006043496 0.0054132002 0.0026685535 0.007682932 0.0064856904
0.0027219015 -3.5774328e-10 3.2884373e-09 -6.2153017e-13 9.1772684e-10 2.4451752e-09 -3.2166389e-16 9.674789e-10
2.2798197e-09 -1.692445e-13 1.1959761e-05 -5.220373e-06 -4.6334287e-07 1.31126535e-05 -3.6559586e-06 -8.107534e-07
1.2719187e-05 -4.4672925e-06 -2.1458854e-06 -6.234e-41 5.7387e-41 -5.0136e-41 -5.5435e-41 5.728e-41
6.1842e-41 -5.3612e-41 5.5905e-41 -5.8277e-41 0.005191459 0.010799757 -0.047282465 0.029494733
00000000: e0fe fa3c 2067 ac3c 79f4 c2bc 5741 b93c
00000010: c1e6 a43c b2ee b4bc 8884 db3c 7c4d 9a3c
00000020: 78d8 b5bc b6df b03c 6f60 fc3b b466 5fbd
00000030: 95aa fb3c 6214 103d 5b51 37bd 93e3 103d
00000040: f3d7 a13c edf8 4dbd a3e9 d63c 5170 613c
00000050: 5ed8 6fbd 1cb1 063d 1d84 a63c 377f 29bd
00000060: 2ba2 d73c bbe1 323d 31f8 6bbd 3d89 0000
00000070: dd89 0000 a089 0000 f189 0000 098a 0080
00000080: 708a 0000 408a 0080 b189 0000 ce88 0000
00000090: 2d46 9d3c 0a4e 8bbb a434 5fbd 27ec 013d
000000a0: e401 0d3c 376b 67bd 013a ce3c b04f d63a
000000b0: a8fa 75bd a4b2 af3c f228 853c e88a 78bd
000000c0: 974a e73c 8929 e03c 2f4d 57bd b651 743c
000000d0: c5f5 0c3d 5a71 46bd d401 c039 438b 093b
000000e0: a80e 5cba 7484 a339 5d6f 133b efd9 00ba
000000f0: 051b 8ab9 a6bf e43a bd9b 33ba 3295 fe3c
00000100: 9f6b 29bc 8173 aebd cd77 0b3d 30cd 7a3c
00000110: e048 98bd c7ec dc3b 558b aa3c 7956 84bd
00000120: 5607 343d fea5 133c efa1 94bd 1fc3 103d
00000130: da40 ac3c 5b49 89bd 43d8 db3c c628 463c
00000140: aedb 77bd dc89 0000 d88b 0000 fa88 0080
00000150: 5d8b 0080 328b 0000 998a 0080 578b 0000
00000160: ec8a 0000 388a 0000 2d66 b13c 48f4 9a3c
00000170: fa5f 6cbd ea0e 063d 7115 8e3c e494 4abd
00000180: bd68 c93c 5c52 393c 6a1e 3bbd 5353 8c3c
00000190: 1a54 ff3c e70e 4c3c 496c 9c3c 4ca6 043d
000001a0: 9cfe 6c3c 6d63 983c 4e3a 043d 830d 613c
000001b0: 5c75 813c b881 803c 9743 40bd 67ad bc3c
000001c0: 1bf4 973c b125 28bd f843 603c ffc4 533c
000001d0: 2476 30bd f5f9 5d3c 583a 6e3c e332 2dbd
000001e0: 5d6b 0e3d 179e b43c f410 18bd b3e9 b33c
000001f0: 44f3 9c3c 3275 12bd ebbd 983c 94cc ce3c
00000200: ee62 54bd 7e84 f73c 080a 273d ed09 71bd
00000210: 8f17 cf3c 5407 b53c 1d6a 4dbd 251c aa00
00000220: 8a8a 0080 2b8b 0000 148a 0080 918a 0080
00000230: c789 0080 9d8a 0000 8689 0000 e68b 0080
00000240: 232c c73c e424 063c 56b1 8ebd 1e0e 323d
00000250: 6189 2b3c 1b59 7abd 984f bc3c 2876 843c
00000260: 2998 7abd 0799 0000 049a 0080 51ad 0000
00000270: ef95 0000 b89d 0000 8fae 0000 1297 0000
00000280: cc8f 0080 4ea6 0000 c5a8 942a 80bd b927
00000290: b723 2f89 724c 082a 71af d926 a55d 2704
000002a0: f03a 8a29 aa86 6626 f836 f385 0cef 4932
000002b0: aefa 5936 a50b 9336 d037 2b35 24c4 9c36
000002c0: 610a d636 04f7 0d31 7330 3e36 0e11 7f36
000002d0: 7289 803b 199e 60bc 944e 65bd 03ab 4a3c
000002e0: 6da1 dabb 79c7 54bd 5f6b 6b3c 2b2c 9bbb
000002f0: d7a9 4bbd 9822 c42c dfc1 542a 8d11 ba9b
00000300: f32d 2f2d c700 eb2a f2c9 5f97 5a1a 0b2d
00000310: b360 e12a 8543 8b9b 3a4e cb3c daaa 8c3c
00000320: c95e 82bd 6355 f13c 774a 1c3c 2641 77bd
00000330: 31e9 ad3c 97ec a43b f0a6 65bd ab3d ee3c
00000340: 7b76 b23a 7dab 56bd 265e ce3c b580 743c
00000350: 9d18 43bd ebfe a73c c1dd 103c db50 44bd
00000360: 4ee2 8438 2a91 7e39 89b7 0439 8508 c63b
00000370: 3761 b13b e6e2 2e3b 1bc1 fb3b ea85 d43b
00000380: ee61 323b e4ab c4af cdfa 6131 f8f1 2eab
00000390: 4943 7c30 fa07 2831 366d b9a5 23f8 8430
000003a0: 03ab 1c31 688d 3eaa c8a6 4837 aa2a afb6
000003b0: 5cc1 f8b4 6bfe 5b37 e458 75b6 8da2 59b5
000003c0: 7e64 5537 c0e5 95b6 0802 10b6 c7ad 0080
000003d0: f99f 0000 c28b 0080 889a 0080 ac9f 0000
000003e0: 64ac 0000 7395 0080 d79b 0000 74a2 0080
000003f0: 1d1d aa3b 77f1 303c 42ab 41bd f09e f13c

e_conv3.bias f4 [32]
0.028843602 -0.009028883 0.073628135 -1.1433049e-05 0.05167278 0.009217439 0.029826624 0.023007605
-4.8447382e-05 -0.00043665076 0.064935796 -0.0039340784 0.02071645 -1.41283225e-08 0.07030729 0.038348775
-1.6428974e-06 0.041258216 0.031390462 0.019317266 -1.6180202e-05 0.035996597 0.051131655 -2.7560147e-05
0.011644879 -1.0743011e-12 0.007592725 0.029116819 -0.0074962894 -5.461891e-09 -0.016184656 -0.041564453
00000000: 6b49 ec3c e1ed 13bc 59ca 963d 92d0 3fb7
00000010: d6a6 533d be04 173c f756 f43c 727a bc3c
00000020: fb33 4bb8 46ee e4b9 0ffd 843d 71e9 80bb
00000030: 8bb5 a93c 05b9 72b2 45fd 8f3d 9b13 1d3d
00000040: 8681 dcb5 60fe 283d 4993 003d 3e3f 9e3c
00000050: b8ba 87b7 2b71 133d 6d6f 513d f730 e7b7
00000060: 2aca 3e3c c731 97ab 65cc f83b 6586 ee3c
00000070: 6fa3 f5bb 4dab bbb1 af95 84bc 7d3f 2abd

e_conv4.weight f4 [32, 32, 3, 3]
-0.0015368705 0.008748546 0.05331198 -0.0013271107 0.004262256 0.05209645 -0.00029699042 0.0021741462
0.050552174 0.026417004 0.008469053 0.0104079135 0.014869514 -0.004909707 0.007917197 0.011996292
-0.011284335 0.011672283 0.027146963 0.005046725 0.01960457 0.013771176 -0.009546485 0.0027787439
-0.0033360817 -0.007595632 0.0027381228 9.578646e-38 -6.9222914e-36 5.437291e-30 1.601145e-39 -8.03944e-39
-3.1157958e-33 -4.9665e-41 -4.9329e-41 1.376427e-39 0.009693085 0.011402176 0.025989586 -0.0013289574
-0.006326116 0.025619548 0.011524062 -3.6885223e-05 0.018100606 0.008043798 -0.016518872 0.008234232
0.01292657 0.009572795 0.009830782 0.007092935 0.0030785352 0.027101725 -0.005747402 0.019357549
0.015244553 -0.018980782 -0.0021247729 0.007014158 0.0027306385 0.011240894 0.025450723 -0.0140371425
-0.019761913 0.0056855 -0.0035360104 -0.008645164 0.022595838 8.7346314e-05 0.004317272 0.026497697
-2.1713282e-32 4.8383768e-32 -1.3426876e-28 1.3564085e-31 -4.7090778e-29 4.7788522e-26 2.9752343e-30 -1.578742e-28
1.8766975e-25 3.7710106e-05 -3.0956315e-05 4.2422043e-06 6.8961356e-08 -5.193033e-05 -1.3378285e-05 8.293303e-06
2.2770891e-08 3.5148973e-05 0.031295925 0.0076391147 0.02440928 -0.0024456778 -0.0014735712 0.019721072
0.02222402 0.0034110136 -0.003508898 0.0026869085 -0.0026673216 0.021337828 0.018732857 -0.0014591304
0.00056160806 -0.008774158 -0.013038817 0.009789334 -0.008165783 -0.041850954 -0.0682363 0.035246715
-0.0023138225 -0.021969855 0.054139946 0.0140574435 -0.0017541649 4.9135e-41 -4.9111e-41 4.955e-41
4.9497e-41 4.9778e-41 4.9413e-41 4.9483e-41 -4.9347e-41 4.9547e-41 0.0014790859 0.01557333
0.016292265 0.006471616 0.0030260119 0.010526157 0.0064596226 0.0058157975 0.038465872 0.008490301
0.010628152 0.019861368 0.008616696 -0.003797168 0.0043427986 -0.011420108 0.005590111 0.029763049
4.998e-41 4.9568e-41 -5.0532e-41 -4.9421e-41 -5.0102e-41 -4.906e-41 4.9753e-41 5.7135e-41
5.3738e-41 -0.0012899967 -0.0026622827 0.024785776 -0.004137308 -0.0002748296 0.0065085064 0.012887814
0.0068964143 0.024233695 0.001364374 0.0032230893 0.018454423 0.0014468606 -0.00013333945 0.021075532
-0.0036886998 -0.0035678747 0.014079581 0.024658183 -0.006925719 0.042742617 0.009858204 -0.00026657272
0.013891494 0.0040120035 -0.0043807705 0.014712199 4.746527e-34 -8.350045e-34 1.8527066e-30 1.7930128e-31
7.558849e-31 -8.571173e-28 9.194079e-31 2.3881377e-30 -2.3290463e-27 -0.0060920827 -0.0033467403 0.0022853124
-0.0030481222 -0.024264678 0.0019012918 0.0074172835 0.01040831 0.029810898 -0.0070934314 -0.003867198
0.007080948 0.008708928 -0.0071786693 0.00829362 0.023603622 0.001042933 0.0024632257 -6.497564e-29
-4.424545e-28 1.280176e-24 7.289302e-27 1.3010557e-25 1.7435283e-22 3.9191765e-26 2.6946502e-25 3.1446119e-22
0.029752191 0.013562187 0.011460011 0.02245777 -0.004344516 -0.00018467833 0.006654929 -0.023633517
0.002857239 -4.963e-41 4.9155e-41 4.9187e-41 -5.0113e-41 4.9256e-41 4.9837e-41 -4.9683e-41
-4.932e-41 4.9078e-41 0.024480011 0.009045396 0.00020011769 0.029072061 0.008192609 -0.00069027
0.03002047 0.008390157 -9.904987e-05 0.03432861 0.022099305 0.033707466 0.0019275002 -0.00801504
-0.0046884306 -0.005543966 -0.01527223 -0.014532625 -0.0014112185 0.0010509009 0.034640223 -0.0019662618
00000000: d170 c9ba 1056 0f3c aa5d 5a3d 72f2 adba
00000010: 65aa 8b3b 1663 553d 61b5 9bb9 1f7c 0e3b
00000020: cc0f 4f3d 7968 d83c c8c1 0a3c f485 2a3c
00000030: 439f 733c 9be1 a0bb 22b7 013c 188c 443c
00000040: eee1 38bc 1a3d 3f3c 4f63 de3c ff5e a53b
00000050: c399 a03c 80a0 613c dc68 1cbc 961b 363b
00000060: 2aa2 5abb c8e4 f8bb 1472 333b b660 0202
00000070: 8a38 1385 0f90 dc0e 576f 1100 b08a 5780
00000080: d36c 8189 728a 0080 8289 0080 ebfc 0e00
00000090: bfcf 1e3c 31d0 3a3c 1de8 d43c 6930 aeba
000000a0: 4f4b cfbb 16e0 d13c 6bcf 3c3c 35b5 1ab8
000000b0: b947 943c 22ca 033c 9652 87bc dfe8 063c
000000c0: f7c9 533c 36d7 1c3c 4a11 213c da6b e83b
000000d0: 40c1 493b 7004 de3c b454 bcbb b993 9e3c
000000e0: 4ac4 793c 967d 9bbc c63f 0bbb 06d7 e53b
000000f0: 83f4 323b ba2b 383c 097e d03c 0bfc 65bc
00000100: bce3 a1bc 6e4d ba3b 69bc 67bb 72a4 0dbc
00000110: e81a b93c b22d b738 e777 8d3b b311 d93c
00000120: ce7b e18a 0f39 7b0b b434 2a91 6712 300c
00000130: 53c7 6e90 26a3 6c15 3361 710e 1b21 4891
00000140: eb52 6816 eb2a 1e38 17d7 01b8 4258 8e36
00000150: e817 9433 c4cf 59b8 4c73 60b7 7723 0b37
00000160: b899 c332 ec6c 1338 2830 003d 8a51 fa3b
00000170: f8f5 c73c aa47 20bb d824 c1ba 168e a13c
00000180: 260f b63c 508b 5f3b 8af5 65bb d816 303b
00000190: 3bce 2ebb abcc ae3c a675 993c 4b40 bfba
000001a0: e138 133a 7cc1 0fbc c3a0 55bc 7163 203c
000001b0: c7c9 05bc e86b 2bbd 79bf 8bbd dc5e 103d
000001c0: 80a3 17bb 20fa b3bc d9c1 5d3d 3151 663c
000001d0: 02ec e5ba f888 0000 e788 0080 208a 0000
000001e0: fa89 0000 c38a 0000 be89 0000 f089 0000
000001f0: 8f89 0080 1e8a 0000 e3dd c13a 4827 7f3c
00000200: 5b77 853c da0f d43b 0e50 463b e775 2c3c
00000210: 3eab d33b 7292 be3b 648e 1d3d e71a 0b3c
00000220: b321 2e3c 4fb4 a23c 0b2d 0d3c e8d9 78bb
00000230: 094e 8e3b 681b 3bbc 402d b73b a3d1 f33c
00000240: 538b 0000 2d8a 0000 dd8c 0080 c489 0080
00000250: aa8b 0080 c288 0080 b18a 0000 459f 0000
00000260: cd95 0000 1b15 a9ba b179 2ebb 8a0b cb3c
00000270: 4192 87bb 0117 90b9 4f45 d53b 6927 533c
00000280: 51fb e13b be85 c63c cbd4 b23a 773a 533b
00000290: bb2d 973c 96a4 bd3a 09d1 0bb9 98a6 ac3c
000002a0: 1dbe 71bb 01d3 69bb 0bae 663c f5ff c93c
000002b0: 24f1 e2bb e212 2f3d 4e84 213c c9c2 8bb9
000002c0: 2699 633c 2077 833b 918c 8fbb 6f0b 713c
000002d0: fcba 1d08 2abd 8a88 364f 160e 12bf 680c
000002e0: 764c 750d cfd0 8792 b62e 950d aebf 410e
000002f0: ac86 3893 18a0 c7bb fc54 5bbb 2ec5 153b
00000300: 01c3 47bb b8c6 c6bc c434 f93a af0c f33b
00000310: 9e87 2a3c fc35 f43c 0470 e8bb d170 7dbb
00000320: 4c07 e83b e4af 0e3c 0b3b ebbb f7e1 073c
00000330: 625c c13c 06b3 883a 126e 213b 9abb a490
00000340: 2c38 0c92 ff18 c617 2761 1014 1a10 2116
00000350: 96c7 521b 7711 4215 70ca a616 8314 be1b
00000360: deba f33c ef33 5e3c c5c2 3b3c 5bf9 b73c
00000370: 715c 8ebb 36a6 41b9 9711 da3b 149b c1bc
00000380: 8440 3b3b 598a 0080 0689 0000 1d89 0000
00000390: b28b 0080 4e89 0000 ed8a 0000 7f8a 0080
000003a0: 7c89 0080 cf88 0000 4e8a c83c 2433 143c
000003b0: afd6 5139 8828 ee3c 4b3a 063c 3cf3 34ba
000003c0: 7ded f53c de76 093c feb8 cfb8 289c 0c3d
000003d0: 9a09 b53c d710 0a3d 2da4 fc3a 8451 03bc
000003e0: 68a1 99bb 28aa b5bb 6038 7abc 3f1a 6ebc
000003f0: a3f8 b8ba 62be 893a e8e2 0d3d 66dc 00bb

e_conv4.bias f4 [32]
0.03540556 0.041374154 0.029643299 -3.48521e-11 0.027411556 0.013135227 0.029346317 0.009312873
-9.688294e-24 0.013279452 0.029212909 0.058682606 0.03929526 0.013456174 0.04160134 0.05185982
0.00015928697 0.01518757 -1.7402988e-05 0.01166472 0.065928005 0.040475644 0.025039745 -0.0044494756
0.036577925 -0.0016308213 0.05944822 0.00959565 0.03805311 -5.965586e-06 -9.7341406e-14 -0.017543074
00000000: 6c05 113d f277 293d 81d6 f23c fa47 19ae
00000010: 338e e03c 2335 573c b067 f03c 0595 183c
00000020: 1c66 3b99 0f92 593c e94f ef3c 2c5d 703d
00000030: 11f4 203d 4977 5c3c 2b66 2a3d f66a 543d
00000040: 4506 2739 49d5 783c a2fc 91b7 621d 3f3c
00000050: 4305 873d cac9 253d 2720 cd3c e8cc 91bb
00000060: bcd2 153d 48c1 d5ba fa7f 733d 1337 1d3c
00000070: 94dd 1b3d fe2b c8b6 8031 dba9 7eb6 8fbc

e_conv5.weight f4 [32, 64, 3, 3]
-0.00054240006 0.016436925 0.017812157 -0.00061482936 0.0145126 0.020906225 -0.000111516136 0.008851206
0.0084413355 0.010806814 0.02023597 0.01814081 0.0034465361 -0.0025498238 -0.002182009 -0.011374222
0.014628272 -0.0017564485 0.009576554 -0.010440393 -0.015724843 0.023958722 -0.020037318 0.018663757
-0.017605696 0.0013069896 -0.028553123 2.688598e-14 1.6520764e-16 3.2624314e-19 8.0597154e-16 8.452024e-19
7.9262156e-23 5.7033926e-21 -8.1106646e-29 -1.3485971e-35 0.021984221 0.02959736 0.0009639246 -0.0029429512
-0.029413724 0.0040340647 -0.006881749 0.008985281 0.012696315 0.0038065515 0.017024018 0.0054448005
-0.0018361117 0.022460468 -0.007422081 -0.010727668 -0.025853178 -0.010593791 0.034548298 0.018501578
-0.005246927 -0.0087002 -0.014348195 0.0035020728 -0.0066550565 0.0059534977 -0.006038778 -0.0009139151
0.002744388 -0.013675686 0.015374592 0.0021884462 0.002854656 -0.023916341 -0.0061698384 -0.0004214703
-2.2896237e-17 -7.9085914e-21 1.8756801e-27 -8.397989e-18 -1.3088712e-21 7.4746646e-28 -1.4855232e-19 -7.9766765e-25
7.8786686e-32 -0.00065889995 -0.00044492193 -0.0002762346 -0.00043933038 -0.00018853994 -4.4462282e-05 -0.00012002458
6.7368215e-05 0.00014965182 0.013839876 0.027694046 0.004585098 -0.01744972 0.014355536 0.015032067
0.006853995 0.012876827 0.013672025 0.0042938655 -0.007428116 0.02292482 -0.00151296 -0.003885876
-0.0044206176 -0.0039462484 -0.011093264 -0.019596465 -0.00033591397 -0.0012554689 -0.020539237 -0.00045016527
0.014093532 0.006214497 -0.0069867545 0.009709586 0.0067636957 4.9476e-41 4.9141e-41 4.9159e-41
4.9677e-41 4.9694e-41 4.936e-41 -4.945e-41 -5.9425e-41 4.9329e-41 0.0022468157 0.019462101
0.0072203437 -0.015761381 0.015300648 0.023864338 -0.008704175 0.006356838 0.011498472 0.008705422
-0.01274572 -0.02650624 0.05053087 0.025987035 -0.0028188562 -0.0340916 -0.009329862 0.0007311165
5.2728e-41 -5.0651e-41 -5.154e-41 4.9474e-41 5.0852e-41 5.0967e-41 5.0305e-41 -4.9148e-41
-5.9884e-41 0.0030649095 0.008546133 0.01566656 -0.016287314 0.027146311 0.004837946 -0.019896887
-0.017099356 -0.007952105 0.0012706356 0.0056439885 -5.1599563e-05 -0.005870283 -0.025323994 -0.0062543824
-0.012997304 -0.019903589 -0.008559225 0.01646092 -0.005143575 -0.007946619 -0.0043692645 0.005100822
-0.0072999583 0.0023325507 -0.0011563777 0.0011756106 -4.916704e-18 -7.3851603e-22 9.250653e-28 -1.7553236e-18
-1.1397223e-22 1.894027e-29 -3.211819e-20 -2.720011e-26 2.3297938e-32 0.025608167 0.01724131 0.0046909903
0.012345004 -0.0012776525 0.00090742036 -0.016778337 -0.023531575 0.0075699924 0.005619676 -0.0027610871
0.017278962 0.012201726 0.0056191706 -0.017798005 0.0001242087 -0.0047567533 -0.013083048 -1.540901e-16
-1.2599597e-19 -2.6127292e-24 -5.793297e-17 -2.3520443e-20 -6.097218e-26 -1.221819e-18 -3.0376345e-23 -4.317674e-30
0.009233157 -0.004858763 0.0037244651 0.015397842 -0.0012917441 -0.011996511 -0.0036557752 -0.007954395
-0.0003557955 4.9546e-41 -4.9701e-41 -4.949e-41 -4.9082e-41 -4.9257e-41 -4.925e-41 4.9462e-41
-4.9096e-41 5.006e-41 0.016036827 0.011168638 0.0007678209 0.012393434 0.008379846 3.749966e-05
0.0045427885 0.0026586254 -0.0012522489 0.0037753475 -0.012288046 -0.01006868 -0.006502203 -0.007966541
-0.007296609 0.01082979 0.011274898 0.004712942 -0.00086402637 -0.0073914686 0.0067424756 -0.0036090226
00000000: da2f 0eba bba6 863c cdea 913c 802c 21ba
00000010: 42c6 6d3c 8843 ab3c c5dd e9b8 a604 113c
00000020: 874d 0a3c 100f 313c e8c5 a53c 099c 943c
00000030: 48df 613b f21a 27bb 0900 0fbb f25a 3abc
00000040: 6bab 6f3c a238 e6ba fbe6 1c3c 2f0e 2bbc
00000050: 63d1 80bc 1545 c43c 4d25 a4bc bce4 983c
00000060: d239 90bc 4b4f ab3a 3de8 e9bc d92a f228
00000070: b078 3e25 7894 c020 344e 6826 b075 7921
00000080: e6a4 bf1a d477 d71d 39a1 cd90 4e68 8f85
00000090: 4118 b43c 2a76 f23c e3af 7c3a 87de 40bb
000000a0: 0df5 f0bc 3030 843b 4b80 e1bb 0037 133c
000000b0: 3404 503c 5677 793b f475 8b3c 4c6a b23b
000000c0: afa9 f0ba 04ff b73c ee34 f3bb 1ac3 2fbc
000000d0: 0bca d3bc 9491 2dbc 8482 0d3d 9f90 973c
000000e0: 6aee abbb 498b 0ebc b114 6bbc 0883 653b
000000f0: a912 dabb 8f15 c33b f1e0 c5bb ce93 6fba
00000100: 31db 333b fc0f 60bc b6e5 7b3c 096c 0f3b
00000110: 2e15 3b3b 34ec c3bc 5b2c cabb c9f8 dcb9
00000120: 362e d3a3 9a63 159e 509b 1413 62ea 1aa3
00000130: 81ca c59c afe1 6c12 2f61 2fa0 bedd 7697
00000140: bc8a cc0b 07ba 2cba 6944 e9b9 95d3 90b9
00000150: ed55 e6b9 ceb2 45b9 037d 3ab8 b5b5 fbb8
00000160: 0948 8d38 dbeb 1c39 a6c0 623c a0de e23c
00000170: 973e 963b b7f2 8ebc 7b33 6b3c 0f49 763c
00000180: 7a97 e03b 54f9 523c a100 603c 8eb3 8c3b
00000190: 8e67 f3bb d5cc bb3c 834e c6ba 2eaa 7ebb
000001a0: d4da 90bb 884f 81bb 86c0 35bc c488 a0bc
000001b0: 9c1d b0b9 8c8e a4ba e741 a8bc 2904 ecb9
000001c0: 8fe8 663c fba2 cb3b 25f1 e4bb f514 1f3c
000001d0: fea1 dd3b eb89 0000 fc88 0000 0989 0000
000001e0: 7b8a 0000 878a 0000 9889 0000 d989 0080
000001f0: a7a5 0080 8289 0000 503f 133b fc6e 9f3c
00000200: a298 ec3b 031e 81bc 92af 7a3c 257f c33c
00000210: f59b 0ebc 064d d03b 1664 3c3c 30a1 0e3c
00000220: 6dd3 50bc 9d23 d9bc 75f9 4e3d c3e2 d43c
00000230: 8fbc 38bb a2a3 0bbd 47dc 18bc 66a8 3f3a
00000240: fc92 0000 328d 0080 ac8f 0080 ea89 0000
00000250: c18d 0000 138e 0000 3b8c 0000 0189 0080
00000260: efa6 0080 a6dc 483b 1405 0c3c 2857 803c
00000270: f96c 85bc f161 de3c a287 9e3b ccfe a2bc
00000280: f313 8cbc 8c49 02bc 758b a63a 35f1 b83b
00000290: 9c6c 58b8 815b c0bb 4474 cfbc 90f1 ccbb
000002a0: a5f2 54bc da0c a3bc fe3b 0cbc 0dd9 863c
000002b0: 6f8b a8bb 8932 02bc 0c2c 8fbb cc24 a73b
000002c0: 7d34 efbb b5dd 183b 9991 97ba f216 9a3a
000002d0: f564 b5a2 e933 5f9c 1b95 9212 2085 01a2
000002e0: b2c8 099b c113 c00f 82ac 179f 3cb0 0695
000002f0: 8bf0 f10a 38c8 d13c a63d 8d3c e1b6 993b
00000300: b342 4a3c e776 a7ba f3df 6d3a b972 89bc
00000310: 4ac5 c0bc b30d f83b 4225 b83b 5bf3 34bb
00000320: 9c8c 8d3c c0e9 473c 0521 b83b 1fcd 91bc
00000330: 053e 0239 8ade 9bbb 485a 56bc 5fa7 31a5
00000340: f2bf 14a0 6f26 4a98 9795 85a4 f124 de9e
00000350: b6f5 9695 044f b4a1 18e4 129a 4a25 af8e
00000360: ab46 173c 4236 9fbb 2816 743b 3b47 7c3c
00000370: bd4f a9ba 048d 44bc bb95 6fbb 2753 02bc
00000380: 108a bab9 1d8a 0000 8c8a 0080 f589 0080
00000390: d288 0080 4f89 0080 4a89 0080 e189 0000
000003a0: dc88 0080 8c8b 0000 aa5f 833c aafc 363c
000003b0: 9747 493a d40d 4b3c 9f4b 093c f448 1d38
000003c0: acdb 943b 553c 2e3b 8022 a4ba d26b 773b
000003d0: cd53 49bc 1bf7 24bc 6f10 d5bb 1886 02bc
000003e0: 6518 efbb 6e6f 313c 5aba 383c 066f 9a3b
000003f0: d47f 62ba 2234 f2bb fcef dc3b 5a85 6cbb

e_conv5.bias f4 [32]
0.03249037 -1.7222543e-21 0.050029982 0.0304027 0.021708965 -0.0017334226 -4.164611e-07 0.017851504
0.033905845 0.03331052 0.051565114 0.032750584 0.034451585 0.029677745 -0.01550626 -0.025195343
0.05568542 0.013315851 -0.001258651 0.029015452 0.05374536 -0.011037136 0.031086193 0.02284108
0.03323375 0.03768696 0.037451994 -1.08623155e-08 0.018267987 0.009832588 0.02247715 -0.0003662983
00000000: 9f14 053d 3e21 029d 3dec 4c3d 150f f93c
00000010: 00d7 b13c 0334 e3ba fa95 dfb4 513d 923c
00000020: dbe0 0a3d 9d70 083d f135 533d 7a25 063d
00000030: 1b1d 0d3d be1e f33c f80d 7ebc 7766 cebc
00000040: 6516 643d ba2a 5a3c 52f9 a4ba d0b1 ed3c
00000050: 1824 5c3d 1bd5 34bc 79a8 fe3c 371d bb3c
00000060: 1d20 083d a45d 1a3d 4367 193d f89c 3ab2
00000070: bfa6 953c dd18 213c 0022 b83c ba0b c0b9

e_conv6.weight f4 [32, 64, 3, 3]
0.005018889 0.01723291 0.006806684 0.034586076 -0.00788548 0.029901808 0.012594976 -0.005753879
-0.0007023197 0.0053579174 0.02678479 0.031502564 0.004898994 0.024927424 0.026795058 0.0072232606
-0.00729596 -0.005109651 0.0011203705 0.03583221 -0.006069649 0.023589384 0.019991562 0.007547802
0.025201475 0.02138827 0.034727078 -4.3060963e-14 -3.5357835e-14 -2.590661e-14 -2.6651475e-14 -2.287368e-14
-1.7182251e-14 -8.820904e-15 -7.0069682e-15 -5.422147e-15 -0.02007053 0.015330793 0.0061408347 -0.004347604
0.034344602 -0.023326563 -0.02041639 0.020383622 0.011261559 -0.007076801 0.017485783 -0.001391876
0.024421101 0.034213033 -0.006805655 0.018398698 0.014043827 0.013933326 0.00085023785 0.0018658574
0.0021865834 -0.00023046377 0.0003905611 0.001403297 -0.00050361984 -7.17036e-05 0.0012170774 -0.0013951918
0.01579918 0.0036798257 0.0128563875 0.013294328 -0.0041789818 -0.005580735 0.031244779 -0.0027309165
-0.006178304 -0.0150121 0.022630664 -0.0062422934 -0.0152456835 0.022306245 0.029177474 0.029886678
0.00265804 -1.4316904e-18 -7.8356777e-19 -4.3889774e-19 -6.4689334e-19 -3.731528e-19 -2.235464e-19 -1.188906e-19
-6.5405546e-20 -3.9700608e-20 0.020099634 0.0065591587 -0.004842656 0.037939135 0.02271132 -0.02138227
0.027381629 -0.011423179 -0.0025398848 -0.0026365172 -0.0035094873 0.010151631 0.009762455 0.019348377
0.023120366 0.019572863 0.004727238 -0.00034951852 -0.007751322 -0.01134853 0.00312588 0.034106344
-0.0032343962 0.005801315 0.017500183 0.024766117 0.0008732764 0.017967094 0.007467983 -0.00023933401
0.002467223 0.010796522 -0.00598256 0.021414408 -0.004323327 0.017436966 0.0016993794 0.020746013
0.011225349 0.018551342 0.005558242 0.024631819 0.0110978065 0.03835556 0.008806511 -1.829561e-07
5.9603013e-07 1.0014392e-06 -1.0916395e-07 6.816072e-07 1.0894611e-06 -2.7422516e-07 5.309277e-07 9.952921e-07
0.0063073286 0.016899118 -0.025090562 0.012731763 0.044038557 -0.014790697 0.013840881 -0.03389867
0.0037822013 4.997e-41 -5.0374e-41 -4.9672e-41 4.9788e-41 4.9701e-41 -4.9376e-41 -4.976e-41
-5.0049e-41 -4.909e-41 1.05798035e-05 1.9287152e-05 2.9353354e-05 1.7066048e-05 2.7692175e-05 3.6498262e-05
2.0103242e-05 2.6858448e-05 3.798402e-05 4.7525427e-06 1.7933673e-06 -7.5349944e-06 5.177805e-06 1.0142817e-05
-9.537063e-06 2.5680288e-06 2.4158537e-06 -8.631537e-06 -0.008939546 -0.0042542447 -0.0009611165 -0.0077845734
-0.0028091886 0.0006695587 -0.0075212903 -0.0030350129 0.0017633585 -5.319851e-05 -1.8236902e-05 1.4163521e-07
-3.4591692e-05 2.0902483e-07 1.8863737e-05 -2.78508e-05 1.0748065e-06 2.4495883e-05 0.014828122 0.02692459
0.021131102 0.012354194 0.013468933 0.01125865 -0.025617167 0.028225334 -0.036764093 0.017686117
0.00031776432 0.01978379 0.027457932 0.0036352784 0.003793067 0.009553696 0.0029716403 -0.023641614
-0.001012414 0.0103479875 -0.00044804247 0.010354269 0.029022371 0.008438778 0.0012978785 0.014941887
0.0012940222 -0.00020321003 -0.000179657 -3.1635307e-05 -9.775935e-05 -0.0001024324 2.2395641e-05 5.2751975e-06
-3.2860771e-06 0.000107624255 0.00011228719 -4.6886966e-05 -0.00024522943 0.00016419392 -4.6845075e-06 -0.00023056785
0.00019754723 -4.6998034e-06 -0.0002162139 -6.1939e-41 -5.6594e-41 -4.9249e-41 -5.0665e-41 -5.1869e-41
5.0329e-41 -5.0531e-41 -5.004e-41 5.0123e-41 0.008386464 0.023793131 0.033106342 0.017300101
00000000: 7e75 a43b 082c 8d3c 9b0a df3b 21aa 0d3d
00000010: 1a32 01bc a3f4 f43c 295b 4e3c 098b bcbb
00000020: e11b 38ba 7891 af3b c76b db3c d508 013d
00000030: be87 a03b 9934 cc3c 4f81 db3c 1ab1 ec3b
00000040: f312 efbb dc6e a7bb 65d9 923a ccc4 123d
00000050: e8e3 c6bb 863e c13c 58c5 a33c 8d53 f73b
00000060: 5373 ce3c 7436 af3c fb3d 0e3d e9ed 41a9
00000070: cf3c 1fa9 9358 e9a8 1e0e f0a8 1d07 cea8
00000080: 93c3 9aa8 3de7 1ea8 e073 fca7 7b5a c3a7
00000090: f46a a4bc 022e 7b3c 0e39 c93b 5876 8ebb
000000a0: edac 0c3d 5917 bfbc 4640 a7bc 8efb a63c
000000b0: 6782 383c 82e4 e7bb 583e 8f3c 9c6f b6ba
000000c0: c30e c83c f722 0c3d f901 dfbb deb8 963c
000000d0: 1418 663c 9b48 643c 7fe2 5e3a c98f f43a
000000e0: c84c 0f3b a6a8 71b9 39c4 cc39 d5ee b73a
000000f0: 5b05 04ba 945f 96b8 5786 9f3a dede b6ba
00000100: 486d 813c 3b29 713b 99a3 523c 74d0 593c
00000110: d7ef 88bb 99de b6bb 0df5 ff3c 2df9 32bb
00000120: 5f73 cabb 50f5 75bc f163 b93c 278c ccbb
00000130: 08c9 79bc 96bb b63c 9905 ef3c e8d4 f43c
00000140: 8332 2e3b bc47 d3a1 b544 67a1 2d8a 01a1
00000150: e1ed 3ea1 4245 dca0 60f5 83a0 7b5c 0ca0
00000160: 3a6f 9a9f 177b 3b9f fda7 a43c 36ee d63b
00000170: 25af 9ebb 1166 1b3d 170d ba3c df29 afbc
00000180: 704f e03c 4928 3bbc 3274 26bb 6bc9 2cbb
00000190: 6dff 65bb 0753 263c b4f2 1f3c 7d80 9e3c
000001a0: ec66 bd3c 4557 a03c f2e6 9a3b 953f b7b9
000001b0: cdfe fdbb 2fef 39bc 90db 4c3b 18b3 0b3d
000001c0: 2af8 53bb f518 be3b 8b5c 8f3c 50e2 ca3c
000001d0: 96ec 643a ba2f 933c fbb5 f43b bcf5 7ab9
000001e0: 22b1 213b e5e3 303c 5a09 c4bb 456d af3c
000001f0: b2aa 8dbb f8d7 8e3c b6bd de3a 8bf3 a93c
00000200: 87ea 373c fcf8 973c ea21 b63b abc8 c93c
00000210: 93d3 353c b81a 1d3d 2f49 103c 9772 44b4
00000220: e1fe 1f35 3069 8635 846d eab3 b1f7 3635
00000230: 9939 9235 3839 93b4 1385 0e35 fa95 8535
00000240: b5ad ce3b 0570 8a3c b98a cdbc e298 503c
00000250: c661 343d ae54 72bc ddc4 623c 55d9 0abd
00000260: cfde 773b 4c8b 0000 6c8c 0080 778a 0080
00000270: ca8a 0000 8c8a 0000 a489 0080 b68a 0080
00000280: 848b 0080 d888 0080 e97f 3137 d8ca a137
00000290: d93b f637 0f29 8f37 7e4c e837 b615 1938
000002a0: 62a3 a837 144e e137 0851 1f38 0878 9f36
000002b0: a2b3 f035 1cd5 fcb6 02bd ad36 112b 2a37
000002c0: 6001 20b7 6656 2c36 0d20 2236 2bd0 10b7
000002d0: 2c77 12bc 3167 8bbb 70f3 7bba bc15 ffbb
000002e0: 5d1a 38bb 5385 2f3a 2875 f6bb 11e7 46bb
000002f0: 7e20 e73a 7721 5fb8 73fb 98b7 6414 1834
00000300: 8c16 11b8 4f70 6034 913d 9e37 23a1 e9b7
00000310: 1242 9035 827c cd37 a7f1 723c f590 dc3c
00000320: 221b ad3c 3f69 4a3c cdac 5c3c 3376 383c
00000330: 18db d1bc d138 e73c f295 16bd 7ae2 903c
00000340: 9b99 a639 9d11 a23c 75ef e03c da3d 6e3b
00000350: 1b95 783b 1b87 1c3c dabf 423b 0fac c1bc
00000360: fab2 84ba 9b8a 293c 3ee7 eab9 f4a4 293c
00000370: 53c0 ed3c cd42 0a3c 931d aa3a d1ce 743c
00000380: 2e9c a93a c714 55b9 4f62 3cb9 27b0 04b8
00000390: 2704 cdb8 fad0 d6b8 46de bb37 9a01 b136
000003a0: 6086 5cb6 55b4 e138 ba7b eb38 7fa8 44b8
000003b0: 2392 80b9 782b 2c39 9d2f 9db6 96c4 71b9
000003c0: ae24 4f39 01b3 9db6 7ab7 62b9 a9ac 0080
000003d0: c39d 0080 4989 0080 3c8d 0080 9790 0080
000003e0: 4c8c 0000 dc8c 0080 7e8b 0080 b98b 0000
000003f0: 6167 093c d0e9 c23c 849a 073d f1b8 8d3c

e_conv6.bias f4 [32]
0.037632536 -0.0012198614 0.044088945 0.04814139 0.005583042 0.04551637 -0.00033593655 0.013736325
0.049133487 0.029666718 -9.534522e-05 0.04187417 0.018946784 0.038382508 0.02364745 0.023080776
0.053174194 -0.00018731247 0.019170191 0.0072642113 0.03633123 0.021473672 0.034230996 0.03369942
0.03274699 0.04915102 -0.0001776921 0.053133756 0.011243645 0.018193481 0.0065367036 0.061643675
00000000: 9324 1a3d c2e3 9fba 9c96 343d e82f 453d
00000010: f3f1 b63b 606f 3a3d a420 b0b9 530e 613c
00000020: 3240 493d 9e07 f33c 13f4 c7b8 4084 2b3d
00000030: 4936 9b3c fa36 1d3d 4cb8 c13c e513 bd3c
00000040: 2fcd 593d 4f69 44b9 ce0a 9d3c 9f08 ee3b
00000050: 0ed0 143d 8ee9 af3c cd35 0c3d 6708 0a3d
00000060: b521 063d 9452 493d dc52 3ab9 c8a2 593d
00000070: 4437 383c 7f0a 953c d831 d63b 147e 7c3d

e_conv7.weight f4 [24, 64, 3, 3]
-0.037544835 -0.017607767 0.00380671 -0.03686247 -0.039042905 -0.03143767 -0.021308912 -0.02352761
-0.023374049 -0.009916624 -0.03664523 -0.027765414 -0.038124926 -0.062486075 -0.059456244 -0.007172721
-0.04816073 -0.023806106 -0.016301338 -0.028601257 -0.016152445 -0.0044504604 -0.08234421 -0.03394185
-0.02356417 -0.049066592 -0.017602302 -0.028245613 -0.020022558 -0.023712782 -0.02215434 -0.025192935
-0.020896412 -0.026547046 -0.02126649 -0.025182713 -0.013590367 -0.006402298 -0.019550985 -0.06548548
-0.067206934 -0.02862784 -0.00265925 -0.029279334 0.0022270293 4.96e-41 5.0018e-41 4.9512e-41
4.9492e-41 4.9958e-41 -4.9312e-41 4.9935e-41 5.0081e-41 -4.9239e-41 -0.032387573 -0.037640247
-0.020532519 -0.03583891 -0.050255384 -0.03353923 -0.019469267 -0.035447944 -0.020176336 4.9165e-41
4.944e-41 -5.023e-41 -5.0476e-41 5.0791e-41 -4.9337e-41 5.0751e-41 -5.0735e-41 5.0863e-41
-0.018944781 -0.028400842 -0.018114962 -0.02885576 -0.034711245 -0.019931655 -0.023600424 -0.034781914
-0.01600928 0.009305572 0.0070462874 0.012913296 0.008695899 0.008984421 0.004788375 0.009522886
0.009826624 0.008595688 -0.041544553 -0.025790144 -0.017502427 -0.039745204 -0.04547965 -0.036327384
-0.005222677 -0.020116094 -0.03133481 5.9245e-41 -5.0829e-41 5.3525e-41 6.1645e-41 -5.5343e-41
4.9184e-41 5.5899e-41 5.0595e-41 5.0625e-41 -0.003367912 -0.005585661 0.003717415 -0.020795466
-0.024329476 -0.013682701 -0.014241726 -0.020527009 -0.017237676 -0.004575063 -0.041679785 -0.0134145105
-0.019415643 -0.0541741 -0.034025334 -0.015929677 -0.03083938 -0.02108929 0.009858682 0.0074773333
0.004172261 0.0033696522 -0.00040185137 -0.0048431996 0.0089657325 0.0019058968 0.003653237 -2.878e-39
-1.068605e-39 -8.39627e-40 -2.440276e-39 1.174575e-39 -1.390867e-39 -1.39772e-39 2.635816e-39 2.805936e-39
-0.0046425066 -0.015817968 -0.006139068 -0.010504422 -0.023411894 -0.008684534 -0.0009207733 -0.010772467
0.0086952355 0.004523547 0.0058355206 0.00195532 0.011666073 0.0040224246 -0.0141928485 0.019007701
0.0113857845 -0.0025459887 -0.012756892 -0.030830584 0.0035641915 -0.03513161 -0.0387006 -0.03861946
-0.030794147 -0.043726 -0.0077948556 0.0015126334 0.00017684101 0.004053112 0.004625384 0.012539861
0.0076860576 0.003609518 0.012749505 0.0016526552 -0.015537398 -0.020531558 -0.028274141 -0.021946132
-0.039050214 -0.01795384 -0.0054671285 -0.016653031 -0.014690591 0.0017532536 -0.01509177 0.00018991566
-0.0129995 -0.014665396 -0.0011526882 -0.0067128567 -0.007357334 0.0018793226 -0.029031504 -0.05303692
0.008138446 -0.04573494 -0.069550775 -0.072907284 0.0037206837 -0.04444587 -0.0076475753 -0.010981915
-0.0100457035 -0.011606535 -0.0088542 -0.019829893 -0.013461056 -0.009279062 -0.010741757 -0.010964819
0.0040513948 -0.036702063 -0.016932335 -0.050408203 -0.035451993 -0.032252774 -0.034557924 -0.041378785
0.008130402 -0.008336257 -0.07648026 -0.015249786 -0.05854485 -0.06720109 -0.074048266 -0.037493475
-0.040875915 -0.01186125 -4.997e-41 -5.0574e-41 -5.0612e-41 -5.0308e-41 4.9205e-41 -5.0811e-41
-5.0154e-41 4.9659e-41 -5.0319e-41 0.0041104103 -0.00020833507 0.00045586494 0.0024379645 0.002498362
0.002380458 0.0021125202 0.0008496053 0.0020158095 -0.013255489 -0.024917373 0.0023076853 -0.046546824
00000000: 9dc8 19bd 2a3e 90bc ff79 793b 1afd 16bd
00000010: 74eb 1fbd c9c4 00bd 0790 aebc f9bc c0bc
00000020: ef7a bfbc 5679 22bc 4f19 16bd 4b74 e3bc
00000030: e228 1cbd 66f1 7fbd 6488 73bd 2509 ebbb
00000040: 3044 45bd 0605 c3bc 628a 85bc 2f4d eabc
00000050: 2252 84bc 2bd5 91bb 15a4 a8bd 9c06 0bbd
00000060: a509 c1bc 0dfa 48bd b432 90bc 5863 e7bc
00000070: 5906 a4bc 4f41 c2bc 057d b5bc 6a61 cebc
00000080: f42e abbc 3179 d9bc 1037 aebc fa4b cebc
00000090: 21aa 5ebc 5eca d1bb 6329 a0bc 401d 86bd
000000a0: caa3 89bd ef84 eabc d046 2ebb 37db efbc
000000b0: 5af3 113b 448a 0000 6e8b 0000 058a 0000
000000c0: f789 0000 438b 0000 7689 0080 338b 0000
000000d0: 9b8b 0000 4289 0080 d5a8 04bd a92c 1abd
000000e0: d033 a8bc d2cb 12bd 97d8 4dbd 6e60 09bd
000000f0: 037e 9fbc dd31 11bd d848 a5bc 0d89 0000
00000100: d289 0000 058c 0080 b58c 0080 968d 0000
00000110: 8889 0080 798d 0000 6e8d 0080 c98d 0000
00000120: 1632 9bbc e2a8 e8bc d465 94bc ea62 ecbc
00000130: 612d 0ebd b647 a3bc ad55 c1bc 7b77 0ebd
00000140: e525 83bc 6676 183c 8be4 e63b 4a92 533c
00000150: 3e79 0e3c 6533 133c cde7 9c3b e105 1c3c
00000160: d9ff 203c eed4 0c3c 9f2a 2abd da45 d3bc
00000170: 4061 8fbc decb 22bd df48 3abd 06cc 14bd
00000180: fd22 abbb 82ca a4bc ee58 00bd 27a5 0000
00000190: b18d 0080 3595 0000 d7ab 0000 469a 0080
000001a0: 1b89 0000 d39b 0000 0a8d 0000 1f8d 0000
000001b0: 30b8 5cbb ec07 b7bb e09f 733b 415b aabc
000001c0: 9c4e c7bc 682d 60bc 2156 69bc 4228 a8bc
000001d0: 0736 8dbc 69ea 95bb 6cb8 2abd 89c8 5bbc
000001e0: 8e0d 9fbc a9e5 5dbd 265e 0bbd f47e 82bc
000001f0: dea2 fcbc 72c3 acbc 4f86 213c 6b04 f53b
00000200: 76b7 883b 62d5 5c3b 94af d2b9 b4b3 9ebb
00000210: 02e5 123c 49cf f93a 256b 6f3b b156 1f80
00000220: d6a2 0b80 8a24 0980 7f92 1a80 3dca 0c00
00000230: 2c25 0f80 4638 0f80 95b3 1c00 cf8d 1e00
00000240: 2b20 98bb af94 81bc 3c2a c9bb bd1a 2cbc
00000250: 4dca bfbc 9349 0ebc 0d60 71ba 007f 30bc
00000260: 7676 0e3c 433a 943b e537 bf3b d324 003b
00000270: 0f23 3f3c 8bce 833b 1f89 68bc 0ab6 9b3c
00000280: 718b 3a3c 9ada 26bb 4802 51bc 6c90 fcbc
00000290: 3695 693b 2ae6 0fbd 8584 1ebd 702f 1ebd
000002a0: 0244 fcbc 091a 33bd fd6b ffbb 8e43 c63a
000002b0: 666e 3939 f8cf 843b 8990 973b fd73 4d3c
000002c0: 53db fb3b aa8d 6c3b 4de3 503c e89d d83a
000002d0: 9290 7ebc cc31 a8bc 2c9f e7bc 60c8 b3bc
000002e0: 1ef3 1fbd ee13 93bc 9925 b3bb f06b 88bc
000002f0: ceb0 70bc 6ecd e53a 7943 77bc 1924 4739
00000300: dbfb 54bc 2147 70bc cc15 97ba 86f7 dbbb
00000310: ca15 f1bb 9a53 f63a 7ad3 edbc 3e3d 59bd
00000320: 1e57 053c 8f54 3bbd a370 8ebd 6a50 95bd
00000330: b7d6 733b df0c 36bd 8398 fabb 7ded 33bc
00000340: bc96 24bc 5629 3ebc 3511 11bc 4d72 a2bc
00000350: c38b 5cbc 3507 18bc 32fe 2fbc c9a5 33bc
00000360: 90c1 843b e754 16bd aeb5 8abc d578 4ebd
00000370: 1c36 11bd 7c1b 04bd 9c8c 0dbd cd7c 29bd
00000380: 6135 053c cc94 08bc afa1 9cbd 3dda 79bc
00000390: bacc 6fbd baa0 89bd 9ea6 97bd c292 19bd
000003a0: 816d 27bd b055 42bc 4c8b 0080 fb8c 0080
000003b0: 168d 0080 3d8c 0080 2a89 0000 a48d 0080
000003c0: cf8b 0080 6e8a 0000 458c 0080 9fb0 863b
000003d0: 8574 5ab9 2801 ef39 42c6 1f3b 8fbb 233b
000003e0: 7501 1c3b 3572 0a3b 0cb8 5e3a ac1b 043b
000003f0: 8d2d 59bc 851f ccbc 893c 173b e2a7 3ebd
